progetto_24/modello57_32.pth (torch, 135216 bytes, 4 tensors)

fc1.weight f4 [128, 256]
00000000: e60f 583d 608f b73c a5cd 0cbd b62a 8dbc
00000010: 91b6 d7bc 5bb7 193d 4923 0fbb 38e3 f93b
00000020: 456b 2e3d f9ed 173d 4a3f 1c3d fb63 b7ba
00000030: 4ff4 91bd f437 85bd d387 60bd 678f 6dbd
00000040: 34d4 2ebd 660c 75bd d8b5 e7bc b79d 28bd
00000050: fbe4 a5bc bfd3 dd3c 69d1 2abd 9731 513d
00000060: 597a c93c d052 78bd 61c8 8ebd 4d0a 413d
00000070: 5cfd e8ba 99c8 6bbd 657e 2a3d 3519 bebc
00000080: 2f5f e8bc 1831 ed3c cf68 66bb b4c4 e0bc
00000090: b512 4bbd eb56 f63b d5a5 2dbd a5d5 603d
000000a0: 47df 4abd dca2 a4bc cfdc 65bc dace 59bd
000000b0: b230 f63b 2626 543c 835a bdb9 7ff1 173d
000000c0: 732f 5bbd aeb1 803a 1bc3 c7bc f6e1 1b3c
000000d0: 9af5 84bd 999a 78bd 75bf 813b af6a 37bc
000000e0: a20b 283d 5c15 1dbd 50c8 5abd f0b6 bebc
000000f0: 1ac5 e93c d469 433d 2386 103d 1b6b 4cbd
00000100: dda1 e73c 7070 08bc 12d8 04bd dfa1 00bc
00000110: 28cd 51bc bc6a 57bd 4042 59bd 6de5 07bd
00000120: 3d0a babb 0aaa 28bd 75f8 52bd 6534 33bd
00000130: cf40 c33c 06dd b8bb 1c93 2c3c 457a 0cbd
00000140: b157 90bd 4d10 69bd 0a36 0e3d c33d 3a3d
00000150: be07 9cbc 118c c33a fca5 f9ba 9419 46bc
00000160: 3c98 c6bc 9fc6 ecbc 7b8f 0cbc 30b7 4abd
00000170: 5ac8 d6bc e67a 31bd 68a3 2e3d 01b4 c43c
00000180: 4b5a c13b c2bc 84bc 3571 de3c 9702 4c3d
00000190: 9699 203c c27e 68bd e722 dbbc 3ab6 13bd
000001a0: b5ae 0d3d ac46 173d a89a 5fbd 2e8a 25bd
000001b0: f45b 0f3d 70f2 b03c 36a5 4e3c 576b f5bc
000001c0: 9945 dabc 0855 003d 3d36 59bc 5c7f 67bd
000001d0: ee63 0dbb ed52 83bd a4fa 85bd 752a 643d
000001e0: 748f 333d 45c9 523d d1ff d7bb f00f 2dbd
000001f0: c782 2bbb a6dd d23b 869d 9f3b d74c 7cbd
00000200: c992 7ebd 9ce0 13bb bce2 d13c 289e adba
00000210: 3249 68bd f240 adbc e0f0 4a3d 9992 27bd
00000220: d1de 2e3d d4a2 01bd 115d 1d3d 6435 18bd
00000230: 57c7 a7bc 0fff a53c 6c93 10bd a005 ee3c
00000240: 7c77 123d 9090 debb bb90 85bd 30cf e83c
00000250: c40a 48bd 62fa 493d 1d97 ffbc 31b0 29bd
00000260: f8e1 08bb 4b02 7c3a 6329 24bd 2e67 833c
00000270: 7bb6 273d ae7d d53c bd6a f73c c85c 86bd
00000280: 09ba 9dbc 9db2 1abd 7138 fcbc 3892 783c
00000290: 1467 8b3c 9ed4 5bbc 41fe 0f3d 9d91 37bc
000002a0: 9a09 8dbd c85e 1abd 01b7 b83c 5eeb d93c
000002b0: dfe9 ac3c 5dff 8f3c b6f0 013d 1559 61bc
000002c0: 94d2 123d 490a 3ebd 6b27 73bd 3f72 10bc
000002d0: 5ce4 a63c 42c5 f13c 6f68 87bd f03b 32bd
000002e0: 31f4 163d 0244 2ebd 85f5 b73c d896 49bc
000002f0: 4480 6dbd 2df8 173b 40ba 923c 0eb6 8abc
00000300: f161 e1bc 1a9b 15bd d039 9f3c 5018 84bd
00000310: 0aaa 123d 00bd 9ebc 950f 84bd c613 a0ba
00000320: 2c9f 2d3d 614b bdbc f87b e93c 5b6a 11bd
00000330: fac1 3cbd 9af6 3e3c 6b13 563c d21e 1e3d
00000340: dbbe 283d 922f 263d b16f 79bd 4551 9cbb
00000350: 419d a43c 316b 503d 7eca 1d3d d137 b53c
00000360: e462 25bd 8889 77bd 634e 253d d900 993c
00000370: c272 c1bc fcff 5cbd 40cf b8bb 7775 15bd
00000380: a319 c5bc ae52 73bb 9f20 60bd 78c0 4a3d
00000390: 4c57 f7bc 6be8 383c 16b3 313d 2481 193d
000003a0: 9fc9 30bd a1f1 73bc 64a6 6dbd 6244 c03c
000003b0: 9630 f63c f0cf 8ebc fd3c 453d 146a 6e3c
000003c0: fa41 b23c b986 3bbd 1f7d 5a3c d586 bf3c
000003d0: 974b 76bc e787 0ebc b690 82bd 3bea 43ba
000003e0: 7f5f db3c f2a9 86bd c5b5 42bc 9e88 08bd
000003f0: 01b5 48bd b537 abbc 1b72 38bd f087 493b
0.052749537 0.022407234 -0.034375805 -0.01723228 -0.026332172 0.037528377 -0.00218411 0.0076259635
0.04258277 0.037092183 0.038146295 -0.0013991588 -0.07126676 -0.06504813 -0.054817032 -0.057998087
-0.04268284 -0.059826277 -0.028284952 -0.041166034 -0.020250788 0.027078507 -0.041703615 0.051072683
0.024594473 -0.06062585 -0.06971813 0.047128964 -0.0017775702 -0.05756435 0.041624445 -0.023205379
-0.0283657 0.028954074 -0.0035157686 -0.027437545 -0.049578387 0.0075176856 -0.042394478 0.054891247
-0.04952934 -0.020097189 -0.014029696 -0.053175785 0.007513129 0.012948548 -0.00036116326 0.037095543
-0.053512048 0.0009818578 -0.024385026 0.0095143225 -0.06492157 -0.06069431 0.003959591 -0.011194869
0.04102672 -0.038350448 -0.05341369 -0.02328059 0.028536368 0.047708347 0.035284173 -0.04990683
0.028275425 -0.008327588 -0.032432623 -0.007851093 -0.012805261 -0.052592024 -0.053041697 -0.03317778
-0.00567749 -0.041177787 -0.05150648 -0.04375114 0.023834614 -0.0056415824 0.0105331205 -0.034296293
-0.07047976 -0.05690031 0.034719504 0.045469057 -0.01904666 0.0014919062 -0.001904666 -0.012091059
-0.024242513 -0.028903304 -0.00857913 -0.049491107 -0.026218582 -0.043330096 0.042636305 0.024011614
0.0059006563 -0.016203288 0.02715359 0.049807157 0.009802243 -0.05676151 -0.026750041 -0.036062457
0.03459044 0.036932632 -0.05459085 -0.04041498 0.034999803 0.021599978 0.012612632 -0.02995841
-0.026644515 0.031331092 -0.01325756 -0.056517944 -0.0021574455 -0.06412301 -0.065419465 0.055704553
0.04383798 0.051461477 -0.006591775 -0.042251527 -0.0026170479 0.006435114 0.004871073 -0.061596718
-0.062151704 -0.0022564298 0.02562081 -0.0013245987 -0.05671043 -0.021149132 0.049546123 -0.04091129
0.042692963 -0.031649426 0.038418833 -0.037160292 -0.020480795 0.020263223 -0.035296842 0.029055417
0.03575848 -0.0067921355 -0.06521746 0.028419107 -0.048838392 0.04931105 -0.031199986 -0.041427795
-0.002088664 0.0009613379 -0.040078532 0.01604041 0.04094551 0.026060905 0.030202264 -0.06560665
-0.019253748 -0.037767995 -0.030788632 0.01517158 0.017016925 -0.013417391 0.035154585 -0.0112041505
-0.06886597 -0.037688047 0.0225482 0.02660149 0.021107612 0.017577821 0.0317237 -0.013754149
0.035845354 -0.046396527 -0.059363764 -0.008816301 0.020372562 0.029513005 -0.06611716 -0.043514192
0.036853973 -0.042545326 0.02245594 -0.01230403 -0.05798365 0.0023188696 0.017911077 -0.016932514
-0.027512522 -0.03652487 0.019436747 -0.0644995 0.035806693 -0.019377232 -0.064482845 -0.0012212924
0.042388126 -0.023107233 0.028501496 -0.03550182 -0.046083428 0.011655474 0.013066153 0.03860361
0.04119764 0.04057271 -0.060897533 -0.0047704303 0.020094516 0.050883476 0.03852319 0.022121342
-0.040377513 -0.060433894 0.04035796 0.018677162 -0.023614291 -0.053955063 -0.0056399405 -0.036488976
-0.024060076 -0.0037128138 -0.05471861 0.04949996 -0.030192994 0.0112858815 0.04338368 0.037476674
-0.04316103 -0.014889152 -0.05802001 0.023470107 0.030052464 -0.017433137 0.048153866 0.014551658
0.021759976 -0.04578278 0.013335495 0.023379723 -0.01503267 -0.008699394 -0.06375258 -0.0007473563
0.026778935 -0.06575383 -0.011884158 -0.033333413 -0.049000744 -0.020900587 -0.045030694 0.003075119

fc1.bias f4 [128]
00000000: fc46 603c 7a57 ac3e 94d8 bfbd 8117 c0be
00000010: d9e4 b6bd d82d c9be f6e8 2fbd 03d8 2abe
00000020: c098 dfbd 28ce 82be 1258 8c3d 1939 973d
00000030: 116c c03b 07e2 dfbd 57a2 b539 3a30 c43e
00000040: cccf 533c 556a 96bd cd82 583d a417 a0bd
00000050: 56b1 e83b 8b2e a83d b27b 8d3e c638 153d
00000060: 73bd 2d3d f171 893d 949c 353d 1440 df3e
00000070: 5d0d 6b3e d500 273d a0b9 bcb9 af24 31bd
00000080: b56d 11be 983b 193d 2cf1 95be 0b2f 853d
00000090: 679c e0be 8f84 d03e abc2 b33e e8b6 86bc
000000a0: 0c11 ac3e 79d6 3a3c 0e63 35bb 2eb7 94bd
000000b0: 9e33 e7be a7eb a53e 12ac 8b3e 75fe 65be
000000c0: 07ee 993e dc0b ddbe 30b2 9d3c ceb1 cdbe
000000d0: d455 d6be 8ac9 82bc b50b eabe 03d8 ffbd
000000e0: fce6 0ebe 8b2c b1bc 4e28 5e3e a96e 7a3e
000000f0: 8fc2 0ebf 453e 94bd 3e34 403f 2abd 403d
00000100: 8658 743d 8ed9 de3d f9fe ccbe 9ab8 8abd
00000110: 87ba ad3c dd39 9c3e cf08 8a3c 143f 44bd
00000120: 1a34 8b3e 8250 8bbe 959f 05bd d177 10be
00000130: b882 82be ace6 03be e2b2 f63c 5b41 82bd
00000140: 1ba7 a73d 0f6b 153d 4cdc 723e 74de 17be
00000150: 30fc bbbe b320 83bd 6ad8 02be 78dc 6dbe
00000160: 1e1d 143e 7cf1 f23e 111a 8dbd 3daf b43c
00000170: e761 4fbd e93f 95bc 397b c7be b20b 723e
00000180: 4abc 0f3b 254c 82bd 3821 91bc 720e 56bd
00000190: 9dd4 d43c 8440 a33e 2894 073e 9ebf 613c
000001a0: f184 273e 3b11 1a3c 2aa2 22be 43b5 2cbe
000001b0: cd97 f0bd c6b0 2e3e 02e5 8ebd 5382 54bb
000001c0: 1d93 323c efac 1cbe af02 953e 0c33 16bd
000001d0: cc98 fcbb 9235 d63e 91ac 64be 53c8 2f3e
000001e0: 9aab 5fbd 1857 27be c4ad fdbc 2d27 81be
000001f0: 2080 92be 1c3c 7fbe 6795 383d 906e cabc
0.013688799 0.3366049 -0.09367481 -0.37517932 -0.08930368 -0.39292789 -0.04294678 -0.16683964
-0.109178066 -0.2554791 0.068527356 0.073839374 0.0058722575 -0.10931783 0.00034643963 0.38318044
0.012927961 -0.073445 0.052859116 -0.07817009 0.007101218 0.08212002 0.27633435 0.036431096
0.042417 0.06711186 0.044338778 0.43603575 0.22954316 0.040772278 -0.00035996456 -0.043247875
-0.14202006 0.03741035 -0.29285562 0.06503113 -0.43869326 0.40726134 0.35109457 -0.016444638
0.33606756 0.011403673 -0.002767745 -0.07261501 -0.45156568 0.3240635 0.27279717 -0.22460349
0.30064413 -0.4317311 0.019250005 -0.40174717 -0.41862357 -0.015965242 -0.45712057 -0.12492373
-0.13955301 -0.021627685 0.21695063 0.24456276 -0.5576562 -0.072384395 0.75079715 0.0470554
0.059654735 0.10881339 -0.4003828 -0.06773491 0.021207107 0.30512896 0.016849903 -0.04791172
0.27188188 -0.2720986 -0.032622892 -0.14108206 -0.25490355 -0.12880963 0.030114595 -0.06360122
0.0818617 0.036479052 0.23716849 -0.14830953 -0.3671584 -0.06402721 -0.12777868 -0.23228633
0.14464232 0.47449863 -0.068897374 0.022056216 -0.050630476 -0.018218951 -0.389612 0.23637274
0.0021932297 -0.0636218 -0.017716035 -0.05225987 0.025980288 0.3188516 0.13240111 0.013778595
0.16359307 0.009403522 -0.15882173 -0.16866021 -0.11747704 0.17059621 -0.069772735 -0.0032426312
0.010899332 -0.15300344 0.2910361 -0.036669776 -0.0077086445 0.41837746 -0.22331454 0.17166261
-0.05460701 -0.16341817 -0.030966647 -0.252252 -0.28613377 -0.24925274 0.045064356 -0.024710923

fc2.weight f4 [3, 128]
00000000: 0bfe b73c dfdd 633d 98cb 12bd c41d b8be
00000010: e47e b33c a2db aebe 9a11 883d 61c1 c73d
00000020: 9a27 90bc cdae 72bc 221a 1c3d 1cd8 02bd
00000030: 6085 8b3c 8101 473c 74f0 793d c738 9d3d
00000040: d962 d8bc da12 bb3c d79b 5b3d 9f2a 9b3d
00000050: 1d0a 73bd 001d 673b dd17 073d 3a87 0abd
00000060: c60d 30bd f87f 5b3d edea b73c d28f ad3e
00000070: 841a 803c f43d 813d edc4 82bc 84dc 39bd
00000080: aac3 15bc 9553 123d 9d5e 2d3b b016 e53d
00000090: 1b92 dcbe d15c b93d dbee 243e efd0 8a3c
000000a0: fc0f 5e3d 9275 b83c 847b 4bbd c775 51bb
000000b0: b759 5cbe 351c 743c d06d b93d 18af 1ebe
000000c0: 81cc 86bc b91f f4bd 3673 b33b eba6 b9be
000000d0: 91c5 64be 04a8 11bd b779 d3be a02a 043d
000000e0: 505e d2ba 2632 85bd 764f cf3d fae1 023d
000000f0: e450 dbbe c9ff 183c 3583 233e 749c 923c
00000100: 6c94 8b3c a1aa 4c3c 29e3 63be 83b5 b53c
00000110: e357 c73c 793d 083d f52f a13b 3e09 7d3c
00000120: 77ec 323b 6a16 5ebd 1695 b1bd 64f2 083d
00000130: 1c77 ccbd 462d 73bd 6e2a 0abd ca88 81bd
00000140: 7480 f03c 2784 92bb 818d a83b da83 b5bc
00000150: e08c 43bf 2c4b 393d 061f 0dbd fd43 58bd
00000160: 8231 e13c 33b4 2d3e 6ba0 e93c c827 5bbb
00000170: 7fa1 e33c d06e 003d ab3a 8abf 73b3 0d3d
00000180: 4cae 343a 941b 7bbd 0993 f53c 5857 26bc
00000190: 0793 3f3d 4023 5e3d f4d0 beba eee2 033c
000001a0: 2152 483d 407a 163d 5d38 c23c c777 88bd
000001b0: 2cb5 27bd 8712 f13c 20a7 db3c 2d70 a63c
000001c0: 7909 583b 64f8 623c 4f4f 26bd b4c7 58bc
000001d0: 0a35 a0bc 5c6f fc3c 5e0f b93c 3b71 073e
000001e0: ddf3 463c 5ca1 20bb 833e 9a3d 40b1 4fbc
000001f0: d533 94bc 6409 e2bd 968e 8f3d 5337 903d
00000200: 4e57 923d f392 563d c0e5 47bd 9d55 af3c
00000210: 6c97 b83c f1c3 46bc 5725 913b fccd 91bd
00000220: 2513 933c 75ee 973c cc5a f83c f705 1dbd
00000230: d370 70bc 102d 4b3d 8104 223d da55 163d
00000240: b1b3 873d 302c c93c 8f02 bfbc 5720 093c
00000250: c848 433d 3ce7 37bd 69ca 2ebc d8e2 2cbc
00000260: b717 623d a05b 0abd 347d 063d 6a70 8fbd
00000270: c409 6abd 9441 8abc daac aa3c 6928 513d
00000280: 4862 783a 3417 d7bc 7d8b 5c3d 0b92 633b
00000290: 5442 edbb 4acf 1b3d 5c20 a5bd 73fe 973c
000002a0: 44f7 003c c8c9 3dbd b51c 933c 59af 083d
000002b0: 96a1 513c 1286 e2bc 00a9 7abd e877 cebc
000002c0: 55d5 28bd 33b3 e7bd 1228 a6bc f5a2 c43c
000002d0: 605d 4c3d bc43 c4bb e054 ccbd e3c2 bb3d
000002e0: e13f 5b3d 98d7 a13d 8e20 d2b9 957f 0c3c
000002f0: 6f08 ca3c b2cd f63c 8aa7 b93d 15d4 6b3d
00000300: 8874 1cbd 8172 47bc 8df7 adbd 44e2 9fbd
00000310: d143 413d cb3f 3dbd 6498 ac3c 4b33 a13c
00000320: 8b92 71bc c2c9 993d a58a 13bd b23a ca3c
00000330: 5ec9 be3b 5714 f9bc ce7f 28bd b9ce a43d
00000340: 3c9f 1f3d 44ea 81bc cffa c3bd 5c5b 22bc
00000350: 62a4 353c 3402 89bd bfe3 53bd dbda a1bd
00000360: fe93 8cbb 4c79 a3bd 8474 0abf 4051 043d
00000370: caf5 23bd f845 37bd c73f bc3c eb1e a13b
00000380: 543e bf3c dde8 aa3b 6ff2 3dba 08e7 ac3c
00000390: e3cb 7a3d 495d 80bd 4278 5dbb 97b0 93bd
000003a0: 50c9 a33c 049a 9abc 6d2d 113d aa61 fcbc
000003b0: 212e 26bd 3e14 c63c 738a 44bd 9f89 513d
000003c0: b7a1 103d 336d 103c 7df8 fb3b f469 923d
000003d0: e706 22bd 4219 08be b723 85bc b19d 1bbf
000003e0: da03 95ba b278 d03c 87e6 b53d 3b1d 4abd
000003f0: 2776 4a3d 1b51 5c3c 56e6 8c3d 7e19 263d
0.022460004 0.055631515 -0.035838693 -0.3596021 0.021911092 -0.34151942 0.06643982 0.09753681
-0.017597008 -0.014812184 0.03811086 -0.03194438 0.017031372 0.012146355 0.06102033 0.07676845
-0.026414322 0.022836138 0.053615417 0.07576489 -0.059335817 0.0035265088 0.032981742 -0.03382037
-0.042981885 0.053588837 0.022450889 0.3389879 0.015637644 0.06310645 -0.015963042 -0.045376316
-0.009140888 0.03572424 0.00264541 0.11185968 -0.4308022 0.090509064 0.16106741 0.01694533
0.054214463 0.022517 -0.04967834 -0.003196107 -0.21518598 0.014899303 0.09054148 -0.1549648
-0.016454937 -0.11920113 0.0054763807 -0.3626016 -0.2234099 -0.035560623 -0.413038 0.032267213
-0.0016049836 -0.06503706 0.10122578 0.03195379 -0.42835152 0.009338328 0.1596802 0.017896868
0.017038547 0.012491853 -0.22254623 0.022181278 0.0243339 0.03326175 0.004919047 0.015444098
0.0027301589 -0.054220594 -0.08671014 0.033434287 -0.09983656 -0.059369348 -0.03373187 -0.063249186
0.029358126 -0.00447132 0.0051438217 -0.022157598 -0.76386833 0.045237705 -0.034453414 -0.052799214
0.027489427 0.16963272 0.028518876 -0.003344046 0.027786968 0.03135568 -1.0799154 0.034594964
0.00068924273 -0.061305597 0.029977338 -0.01015266 0.046771076 0.054232836 -0.0014558122 0.00804971
0.04890645 0.03673768 0.023708517 -0.06663471 -0.040944263 0.02942778 0.02681309 0.020317161
0.003296463 0.013853166 -0.04060298 -0.013231207 -0.019556541 0.030814819 0.022590335 0.13226788
0.0121431025 -0.002451024 0.075314544 -0.012676537 -0.018091122 -0.11036947 0.07009618 0.07041802
0.07145558 0.052386235 -0.04880309 0.021403128 0.022533141 -0.012131677 0.0044295 -0.071193665
0.017953465 0.018546322 0.030316733 -0.038335767 -0.014675337 0.04960352 0.039555077 0.03670297
0.0662607 0.024557203 -0.02331665 0.008369527 0.04767683 -0.044898257 -0.0106683755 -0.010552131
0.055198397 -0.033778787 0.032834247 -0.07003863 -0.05713822 -0.016876973 0.020834375 0.05106393
0.0009475094 -0.026256181 0.053843964 0.00347245 -0.007240573 0.038039483 -0.08062813 0.018553948
0.007871453 -0.04633501 0.017958025 0.03337035 0.012794873 -0.02765182 -0.061196327 -0.02520366
-0.041219074 -0.113134764 -0.020282779 0.024003485 0.049893737 -0.00598952 -0.09977126 0.09168031
0.053527717 0.07902449 -0.00040078576 0.00857534 0.024662225 0.03012738 0.09065159 0.057575304
-0.03819707 -0.012173296 -0.08494482 -0.078068286 0.047183815 -0.046203416 0.02106876 0.019677779
-0.014744411 0.075091854 -0.036020894 0.024686191 0.0058223447 -0.030405207 -0.04113751 0.08047242
0.038970217 -0.015858777 -0.09569322 -0.009909477 0.011086555 -0.06689873 -0.051730867 -0.079030715
-0.004290103 -0.0798212 -0.5408404 0.03230405 -0.040029325 -0.04474446 0.02297963 0.004917016
0.02334515 0.0052157477 -0.0007245903 0.021106258 0.061229598 -0.06267793 -0.0033793603 -0.07211416
0.019993454 -0.018872268 0.035443712 -0.030808289 -0.040571336 0.024179574 -0.047983598 0.051156636
0.035310473 0.008815098 0.007689534 0.07149115 -0.039557364 -0.13290885 -0.016252382 -0.60787493
-0.0011368946 0.025448177 0.0888186 -0.049344283 0.049429085 0.013447071 0.068798706 0.040551655

fc2.bias f4 [3]
00000000: e6e6 933d c3a9 af3e 1fac c5be
0.07221775 0.34309205 -0.3860788
