progetto_24/modello57_8.pth (torch, 36912 bytes, 4 tensors)

fc1.weight f4 [128, 64]
0.06941871 0.038013045 -0.109959096 -0.06611024 -0.043465957 0.13619041 0.043797184 -0.011518738
0.046792988 0.06089566 0.029312259 -0.034546304 -0.13499637 -0.065997735 -0.06928308 -0.14192997
-0.12238808 -0.1257716 -0.09658029 -0.1150073 -0.035493713 0.12124773 -0.037559904 0.07680071
0.009868808 -0.12421018 -0.17518425 0.06052297 -0.0013976238 -0.044491198 0.13027745 -0.072260365
-0.098634966 0.05564772 -0.042431217 -0.09020544 -0.09901538 0.08895831 -0.039061517 0.0834178
-0.14176561 -0.04082029 -0.06118223 -0.1434292 0.012331862 0.10298359 0.0440295 0.050969034
-0.15544909 0.0038864682 -0.07995961 -0.020573629 -0.13563575 -0.041885823 0.052960526 -0.033032227
0.025850222 -0.074079886 -0.1372629 -0.089052185 0.04796135 0.17776729 0.113634825 -0.11039748
0.06570372 -0.032399613 -0.08861478 -0.002493014 -0.0038054364 -0.09566961 -0.0895796 -0.09706214
-0.003083783 -0.103357434 -0.13116708 -0.07438054 0.069098875 -0.0016883948 0.029755123 -0.09022411
-0.1319217 -0.13255669 0.040688902 0.10359656 -0.016203757 0.012794888 0.00879807 -0.025847211
-0.036812533 -0.07477745 -0.04352214 -0.08620565 -0.030251564 -0.076294325 0.09873977 0.046857934
0.020611787 -0.054020826 0.02496061 0.11358121 0.04084168 -0.10263708 -0.044884402 -0.073493026
0.08297025 0.0654167 -0.13305789 -0.06969946 0.09246081 0.054644354 0.040785786 -0.041680336
-0.0424313 0.05533202 -0.0502978 -0.10215169 0.017008547 -0.116373755 -0.11188554 0.15161145
0.09973167 0.09148583 -0.03892971 -0.07393845 0.015816484 0.025453303 0.025837047 -0.08287707
-0.07483361 -0.076795734 -0.037440427 0.042165842 -0.13065703 0.06768513 0.12381512 -0.09702804
0.12925589 -0.13367945 0.014178611 -0.0032373795 -0.06622262 0.17724118 -0.06208992 0.059158053
0.079309195 -0.098426186 -0.18702906 0.15856576 -0.13415122 0.255451 -0.083237216 -0.07336259
0.030651016 -0.057938002 -0.10677123 0.13223518 0.04031605 0.22326526 0.05346907 -0.12237261
-0.04000223 -0.15031478 -0.08888352 0.13718228 -0.01670794 0.15573001 0.03946148 0.00022854451
-0.10243592 -0.1340747 0.025772067 0.1626725 -0.0027910434 0.22224079 0.049963154 0.005964679
0.08568581 -0.18504052 -0.16471663 0.09135376 -0.0037883024 0.24880943 -0.19187678 -0.029225416
0.0446792 -0.1726071 -0.009390998 0.05782316 -0.17310286 0.19287209 -0.016103335 0.019519797
-0.015939185 -0.16322626 0.036848117 0.085828684 0.21229814 -0.26566926 -0.38906977 -0.0055989367
0.14186648 -0.10009294 0.08507199 0.1386331 0.061953336 -0.2175054 -0.19076578 0.069808766
0.15331975 0.02351549 -0.09800915 0.20393227 0.20898566 -0.15312067 -0.130706 0.031877596
0.017902087 -0.17829582 0.10042166 0.25976676 0.14059453 -0.37757224 -0.20656297 -0.08035726
0.09334936 -0.07264796 -0.09270355 0.34434792 0.14878684 -0.26056457 -0.10642223 0.07056959
0.084447905 -0.10118084 -0.10390219 0.3155551 0.29365286 -0.3307523 -0.09448216 0.02197746
0.2512299 -0.16269794 0.048272796 0.36064738 0.23276383 -0.3252943 -0.30650118 -0.0068162233
0.32850793 -0.21328007 -0.0028212704 0.30315188 0.2041019 -0.36384273 -0.26886302 0.00037519837
00000000: 662b 8e3d 91b3 1b3d 3c32 e1bd ce64 87bd
00000010: 5c09 32bd 8075 0b3e ad64 333d 17b9 3cbc
00000020: 01aa 3f3d ba6d 793d 4320 f03c 6d80 0dbd
00000030: 7d3c 0abe d229 87bd 4ae4 8dbd 1756 11be
00000040: 9aa6 fabd 45ca 00be e3cb c5bd f388 ebbd
00000050: db61 11bd bb50 f83d 6ad8 19bd b149 9d3d
00000060: c8b0 213c e861 febd 8063 33be efe6 773d
00000070: 7930 b7ba 673c 36bd 7467 053e 3efd 93bd
00000080: 2101 cabd ddee 633d 5bcc 2dbd a1bd b8bd
00000090: 93c8 cabd c62f b63d f8fe 1fbd f4d6 aa3d
000000a0: 012b 11be 2d33 27bd 389a 7abd 1bdf 12be
000000b0: 940b 4a3c 0fe9 d23d 4758 343d e8c4 503d
000000c0: 0c2e 1fbe 1eb4 7e3b ddc1 a3bd 078a a8bc
000000d0: 19e4 0abe 7890 2bbd 23ed 583d cd4c 07bd
000000e0: d8c3 d33c 32b7 97bd a58e 0cbe fe60 b6bd
000000f0: 1f73 443d a108 363e 60b9 e83d 1318 e2bd
00000100: ac8f 863d 75b5 04bd aa7b b5bd d661 23bb
00000110: a164 79bb 6eee c3bd 8275 b7bd 84c8 c6bd
00000120: 4b19 4abb 10ad d3bd aa50 06be d354 98bd
00000130: b683 8d3d 214d ddba 04c1 f33c 6bc7 b8bd
00000140: 7b16 07be f1bc 07be 68a9 263d 6f2a d43d
00000150: bebd 84bc a6a1 513c c825 103c 88bd d3bc
00000160: bdc8 16bd eb24 99bd 4544 32bd 968c b0bd
00000170: 21d2 f7bc 3340 9cbd 1438 ca3d 1bee 3f3d
00000180: 0dda a83c f144 5dbd 317a cc3c 449d e83d
00000190: 9b49 273d 6433 d2bd b5d8 37bd 8383 96bd
000001a0: 4eec a93d 31f9 853d 5440 08be 97be 8ebd
000001b0: 185c bd3d c2d2 5f3d ff0e 273d 00b9 2abd
000001c0: 71cc 2dbd d4a3 623d 1105 4ebd e834 d1bd
000001d0: 8255 8b3c 5d55 eebd 3f24 e5bd 0840 1b3e
000001e0: 1e40 cc3d ec5c bb3d c274 1fbd 0b6d 97bd
000001f0: 9291 813c 7283 d03c 37a8 d33c 74bb a9bd
00000200: 5d42 99bd 1547 9dbd 225b 19bd 17b6 2c3d
00000210: f5ca 05be 809e 8a3d c892 fd3d a3b6 c6bd
00000220: a85b 043e 44e3 08be 684d 683c 372a 54bb
00000230: ba9f 87bd b67e 353e 0052 7ebd b74f 723d
00000240: dc6c a23d ab93 c9bd 8c84 3fbe 105f 223e
00000250: f05e 09be 79ca 823e 4678 aabd 203f 96bd
00000260: d717 fb3c 6650 6dbd e0aa dabd a968 073e
00000270: 7122 253d a69f 643e 6202 5b3d 7e9e fabd
00000280: 61d9 23bd 1eec 19be 9008 b6bd 8379 0c3e
00000290: 17df 88bc b077 1f3e 5ca2 213d 73a5 6f39
000002a0: ecc9 d1bd e14a 09be f11f d33c 9f93 263e
000002b0: f0e9 36bb 1793 633e 2aa6 4c3d 5b73 c33b
000002c0: 0b7c af3d 437b 3dbe 7aab 28be ae17 bb3d
000002d0: 2b45 78bb e6c7 7e3e 597b 44be 246a efbc
000002e0: 8901 373d eabf 30be b3dc 19bc fad7 6c3d
000002f0: e041 31be 4380 453e 24eb 83bc fbe7 9f3c
00000300: e592 82bc c924 27be 0dee 163d f3c6 af3d
00000310: af64 593e cd05 88be 2734 c7be 4977 b7bb
00000320: 7245 113e 87fd ccbd 393a ae3d d6f5 0d3e
00000330: c8c2 7d3d bcb9 5ebe 1b58 43be e6f7 8e3d
00000340: daff 1c3e 8fa3 c03c 05b9 c8bd 9fd3 503e
00000350: 5600 563e aacb 1cbe cbd7 05be 1592 023d
00000360: 66a7 923c 2e93 36be dfa9 cd3d 2600 853e
00000370: 03f8 0f3e 2651 c1be 3e85 53be 5992 a4bd
00000380: f32d bf3d 74c8 94bd 5cdb bdbd 5f4e b03e
00000390: 945b 183e b868 85be e6f3 d9bd ca86 903d
000003a0: 06f3 ac3d e637 cfbd acca d4bd 7090 a13e
000003b0: ab59 963e 5e58 a9be dd7f c1bd 130a b43c
000003c0: 35a1 803e 4a9a 26be b2b9 453d c6a6 b83e
000003d0: a459 6e3e f98c a6be b9ed 9cbe a05a dfbb
000003e0: 3132 a83e 1766 5abe 10e5 38bb b936 9b3e
000003f0: 1700 513e 9849 babe 6aa8 89be 46b6 c439

fc1.bias f4 [128]
0.11831012 0.02675864 0.34293976 -0.46848464 -0.0120837325 0.47629115 -0.60643697 -0.15869692
0.5454621 0.7622852 -0.6237133 -0.028116979 0.2082675 -0.6031629 0.50148517 0.2745354
0.009740306 -0.33624825 -0.13305882 -0.061465174 -0.48594844 -0.35492268 0.60485315 0.066588916
-0.06860102 -0.37796322 0.15719534 -0.03051167 0.44425857 -0.30839065 0.23398289 -0.07066624
0.09214451 -0.11785409 -0.3966722 0.20113938 -0.5403091 0.19543123 -0.19386357 0.07767334
0.0006363861 0.35670257 0.13509971 0.016137328 0.49289757 0.5400953 0.695071 0.18311284
0.543817 -0.26708218 -0.10937688 -0.1366115 0.33021295 -0.61431986 0.13253114 -0.06721505
-0.30614927 -0.57031184 0.33770007 -0.5628147 -0.30890688 -0.28939882 0.15312554 0.29094663
-0.6233091 -0.45010006 0.13682738 -0.102684036 0.48342773 0.45845097 0.6951858 0.012271961
0.1756343 0.16143417 -0.4298872 -0.47872034 0.34853083 -0.7694408 0.7195083 -0.014218514
-0.06968025 -0.4937961 -0.39684638 -0.12231062 0.22903934 -0.1254613 -0.26370224 0.3266904
0.3353112 -0.5844422 0.89922774 0.40340173 0.044735756 -0.05564867 0.027219579 0.4468626
-0.1175897 0.26921308 -0.08428772 0.48066747 0.20119788 0.054797754 -0.19137768 -0.40575674
0.049927197 0.04915905 0.34377563 -0.4324741 0.76072073 -0.064952776 -0.4582002 -0.3742886
-0.1904093 0.2504814 0.27083552 -0.6391524 -0.035107154 -0.031576302 -0.4240871 -0.45164555
-0.009479719 -0.09226997 -0.006289347 -0.033006337 0.8383231 0.046447687 0.011608788 -0.023878185
00000000: 944c f23d ef34 db3c cd95 af3e 38dd efbe
00000010: d9fa 45bc 6fdc f33e 743f 1bbf 7281 22be
00000020: 67a3 0b3f 1f25 433f adab 1fbf 9455 e6bc
00000030: 1344 553e e268 1abf 5561 003f e78f 8c3e
00000040: ce95 1f3c bb28 acbe 9240 08be e8c2 7bbd
00000050: 3cce f8be 6db8 b5be a8d7 1a3f c55f 883d
00000060: b17e 8cbd 6584 c1be d1f7 203e 9cf3 f9bc
00000070: dc75 e33e 61e5 9dbe 3699 6f3e 76b9 90bd
00000080: 43b6 bc3d 7c5d f1bd 9e18 cbbe 7bf7 4d3e
00000090: b251 0abf 201f 483e 2c84 46be 3313 9f3d
000000a0: 26d3 263a b8a1 b63e 9457 0a3e 6e32 843c
000000b0: 125d fc3e b043 0a3f 2cf0 313f ef81 3b3e
000000c0: 9737 0b3f ffbe 88be fc00 e0bd e3e3 0bbe
000000d0: ac11 a93e 1144 1dbf 3eb6 073e 0ba8 89bd
000000e0: 99bf 9cbe f5ff 11bf 06e7 ac3e a014 10bf
000000f0: 0b29 9ebe 152c 94be f1cc 1c3e f5f6 943e
00000100: 2f91 1fbf 8473 e6be 7a1c 0c3e 024c d2bd
00000110: d783 f73e 16ba ea3e b2f7 313f 5610 493c
00000120: 7ad9 333e 004f 253e 2d1a dcbe d51a f5be
00000130: a272 b23e 13fa 44bf b231 383f c5f4 68bc
00000140: 85b4 8ebd d8d2 fcbe 732f cbbe fe7d fabd
00000150: 4a89 6a3e ed78 00be fb03 87be f743 a73e
00000160: e9ad ab3e 019e 15bf ca33 663f ac8a ce3e
00000170: d73c 373d dcef 63bd 98fb de3c 2dcb e43e
00000180: ded2 f0bd 4cd6 893e 0a9f acbd 0c1a f63e
00000190: d106 4e3e 9c73 603d 83f8 43be 59bf cfbe
000001a0: 7680 4c3d 005b 493d 5c03 b03e 3f6d ddbe
000001b0: 98be 423f f605 85bd 3799 eabe c1a2 bfbe
000001c0: a8fa 42be 193f 803e f4aa 8a3e 7e9f 23bf
000001d0: 85cc 0fbd 2756 01bd f221 d9be 163e e7be
000001e0: d350 1bbc 0af8 bcbd de16 cebb a731 07bd
000001f0: 589c 563f ee3f 3e3d c932 3e3c 2f9c c3bc

fc2.weight f4 [3, 128]
0.0052036 0.12611012 0.1675678 -0.017551709 -0.04332696 -0.026589844 -0.18184498 -0.0069202865
0.32706654 0.2452667 -0.3525541 0.03812909 0.037770875 -0.26008266 -0.041357256 0.12852405
-0.03230816 -0.054733492 -0.057850625 0.025529975 -0.40706992 -0.33749598 0.15737124 0.07154517
-0.06421574 -0.12455623 0.0037904547 0.0029681972 0.01924454 -0.009913422 0.11791676 0.00473335
-0.03542465 -0.035907958 -0.052354418 0.0022826244 -0.40402684 -0.054594357 -0.028663866 0.063921645
0.0022044298 0.033082806 -0.012665732 0.024133252 -0.013849329 0.054280825 0.07384489 -0.025500702
0.012108918 0.03622692 0.06112131 -0.17330356 0.0025831114 0.028903648 0.018334588 0.00818638
-0.039578155 -0.27736428 0.08498182 -0.47420284 -0.57180357 -0.029424356 0.16935158 0.026678817
-0.5880467 -0.16904208 0.12304415 0.013426405 0.038215023 0.095742986 0.107447945 -0.13668184
-0.009629426 0.011408996 -0.28864753 -0.08346032 0.003503033 -0.5423027 0.06520669 0.038065545
-0.05910644 -0.29495448 -0.019123208 -0.04108651 0.20888682 -0.003965556 -0.104840435 0.05461849
0.16837692 -0.02616352 0.18197322 0.0349417 0.024301397 0.0029976496 -0.07181874 0.4778683
-0.04747919 0.0215463 -0.048601665 0.49801984 0.2617811 -0.019576741 -0.06671111 0.0073631746
-0.004669776 -0.013254604 0.056659166 -1.3250469 0.23519957 0.12384425 -0.33833688 -0.040559668
-0.04121814 -0.0026743258 -0.020171005 -0.49403808 -0.043596067 -0.04862977 -1.3045987 -0.1234698
0.0041769696 0.036594912 0.064958595 -0.020935556 0.21418907 -0.048764456 -0.07791239 -0.12358288
0.028413853 -0.076413184 0.040493608 -0.035689678 -0.011621968 0.01751889 -0.114549786 0.039835416
-0.14836647 0.023024058 -0.09613031 -0.08080241 0.25985608 -0.020521194 -0.03008499 -0.057230785
-0.016472153 -0.057394832 0.05603274 -0.015150338 -0.090877935 0.04932133 -0.049151365 -0.019124463
0.0027525083 0.007083839 -0.009632602 -0.03238946 0.037849225 -0.055881474 -0.03308887 0.046182122
-0.06043838 -0.0016245679 0.016942976 -0.040183175 -0.007882067 -0.040016267 -0.066188246 -0.61303914
0.023010112 -0.08493026 -0.014863813 -0.04063964 0.0066008843 0.0072798235 -0.8827494 -0.009515636
0.036392123 0.085580565 0.040646687 -0.034373593 -0.017120667 -0.039085247 0.06690401 -0.025269425
-0.009503817 -0.0040364945 -0.0002580502 0.018071035 -0.027815582 -0.03288976 0.04651084 -0.0009797268
-0.06522364 -0.027051276 0.05814311 -0.11069682 0.014523177 0.12938707 0.00550438 0.0435626
-0.043738868 -0.0070333015 -0.08968542 -0.0182844 0.017025724 0.025389474 0.04544548 -0.02219289
-0.015678663 -0.008736717 -0.038358334 -0.03194947 -0.35376456 -0.0052074245 0.023200003 0.046985596
-0.04440057 -0.05287204 -0.045632496 -0.0587291 0.033726532 -0.08199699 -0.114505574 -0.09808388
0.02915636 -0.0023408872 0.09734943 -0.20198974 -0.025812205 -0.0065837395 -0.74467087 -0.021740487
0.01684797 0.07762042 0.017432792 -0.0956228 0.058062457 -0.06678866 0.19906235 0.06288224
0.02714132 -0.024685036 -0.04700053 0.046728194 0.044804536 0.044565182 0.025360802 0.011403051
0.04345825 0.01305542 -0.07261551 0.020380279 0.12639838 0.021209775 0.036211997 0.008631223
00000000: f682 aa3b 0323 013e e596 2b3e 9ac8 8fbc
00000010: 9c77 31bd f2d2 d9bc 9235 3abe 92c3 e2bb
00000020: 4475 a73e 3227 7b3e f981 b4be 402d 1c3d
00000030: a2b5 1a3d 8e29 85be 3a66 29bd cf9b 033e
00000040: 9055 04bd 3a30 60bd c7f4 6cbd 3d24 d13c
00000050: 786b d0be 46cc acbe ed25 213e 4686 923d
00000060: 8b83 83bd 5617 ffbd 4769 783b 1686 423b
00000070: baa6 9d3c e86b 22bc 587e f13d 381a 9b3b
00000080: 7019 11bd 3914 13bd 9671 56bd 1598 153b
00000090: 9bdc cebe 559e 5fbd 7cd0 eabc 5ae9 823d
000000a0: 3278 103b d681 073d ee83 4fbc 19b3 c53c
000000b0: 4ce8 62bc 9255 5e3d fd3b 973d d9e6 d0bc
000000c0: 7c64 463c ae62 143d 575a 7a3d 7d76 31be
000000d0: 6b49 293b 58c7 ec3c 6b32 963c 2b20 063c
000000e0: b41c 22bd b102 8ebe f30a ae3d b7ca f2be
000000f0: b861 12bf 590b f1bc 806a 2d3e 898d da3c
00000100: 3b8a 16bf 5e19 2dbe 92fe fb3d 6dfa 5b3c
00000110: 5b87 1c3d e614 c43d ab0d dc3d 53f6 0bbe
00000120: bdc4 1dbc ccec 3a3c 9cc9 93be 3fed aabd
00000130: 2493 653b 5ad4 0abf 168b 853d 9eea 1b3d
00000140: 9819 72bd 4604 97be 46a8 9cbc 544a 28bd
00000150: 6de6 553e 7ff1 81bb 95b6 d6bd a3b7 5f3d
00000160: 006b 2c3e e154 d6bc 3057 3a3e 071f 0f3d
00000170: b913 c73c 3774 443b b415 93bd 27ab f43e
00000180: 8a79 42bd de81 b03c 8a12 47bd 75fc fe3e
00000190: 2c08 863e 675f a0bc d69f 88bd c946 f13b
000001a0: ec04 99bb d729 59bc 7113 683d 239b a9bf
000001b0: 28d8 703e 0ea2 fd3d 7e3a adbe e521 26bd
000001c0: 5ad4 28bd be43 2fbb aa3d a5bc 8ff2 fcbe
000001d0: ca91 32bd 0230 47bd 17fd a6bf bcdd fcbd
000001e0: f6de 883b 8ce4 153d 0309 853d 0b81 abbc
000001f0: 6154 5b3e 3dbd 47bd 8890 9fbd 0519 fdbd
00000200: 2bc4 e83c 847e 9cbd a0dc 253d 572f 12bd
00000210: 116a 3ebc c683 8f3c 1499 eabd 762a 233d
00000220: 61ed 17be f39c bc3c f8df c4bd bc7b a5bd
00000230: db0b 853e 101c a8bc cc74 f6bc d46a 6abd
00000240: 9cf0 86bc d816 6bbd 9682 653d 2039 78bc
00000250: 361e babd 2a05 4a3d f152 49bd e8aa 9cbc
00000260: 6d63 343b 8c1f e83b 10d2 1dbc cfaa 04bd
00000270: ca07 1b3d f9e3 64bd 3288 07bd 7729 3d3d
00000280: 3c8e 77bd 74ef d4ba ffcb 8a3c 1d97 24bd
00000290: c923 01bc 19e8 23bd b48d 87bd 22f0 1cbf
000002a0: b47f bc3c ebef adbd 5a87 73bc c075 26bd
000002b0: 3b4c d83b 968b ee3b ddfb 61bf 78e7 1bbc
000002c0: e80f 153d dd44 af3d 247d 263d 53cb 0cbd
000002d0: a440 8cbc da17 20bd f804 893d d301 cfbc
000002e0: e6b5 1bbc 9244 84bb e94a 87b9 b509 943c
000002f0: 81dd e3bc 6ab7 06bd 2782 3e3d 2d6a 80ba
00000300: f993 85bd a39a ddbc 7827 6e3d 04b5 e2bd
00000310: 9ff2 6d3c 0b7e 043e 165e b43b b26e 323d
00000320: 8727 33bd 9c77 e6bb fdac b7bd 2bc9 95bc
00000330: 8879 8b3c 96fd cf3c 0a25 3a3d ddcd b5bc
00000340: 8a70 80bc 7224 0fbc a11d 1dbd 73dd 02bd
00000350: a120 b5be 0ba3 aabb ef0d be3c f873 403d
00000360: 5fdd 35bd 5a90 58bd 24e9 3abd ed8d 70bd
00000370: d524 0a3d 0aee a7bd e681 eabd 34e0 c8bd
00000380: 52d9 ee3c 9269 19bb 235f c73d 66d6 4ebe
00000390: 1e74 d3bc 69bc d7bb c0a2 3ebf 1b19 b2bc
000003a0: c104 8a3c 74f7 9e3d 37cf 8e3c e3d5 c3bd
000003b0: e6d2 6d3d 7ec8 88bd 00d7 4b3e 67c8 803d
000003c0: 7957 de3c 4638 cabc a183 40bd 1066 3f3d
000003d0: f684 373d fb89 363d 75c1 cf3c ddd3 3a3c
000003e0: 4701 323d 66e6 553c 71b7 94bd 8bf4 a63c
000003f0: 946e 013e 1fc0 ad3c 0853 143d f969 0d3c

fc2.bias f4 [3]
0.21499963 0.4075432 -0.5396398
00000000: dd28 5c3e 81a9 d03e d525 0abf
