progetto_24/modello57_2.pth (torch, 12336 bytes, 4 tensors)

fc1.weight f4 [128, 16]
00000000: 0532 203f f37e 023e a0f8 203e bdbd f53d
00000010: ca00 18be 4a98 6f3e 0c7c e5be 066c bc3d
00000020: 5a6f 283f 382c 043e cf36 c23e ec85 623e
00000030: 12ea 8bbe 2502 54be de46 31bf d46f ecbd
00000040: 9fe0 483d 3e15 3ebe 74cb 9dbd 8396 a63d
00000050: f570 753e 7998 853b 2ae9 75be c9b4 3a3e
00000060: 9e4f ab3e 1cfc 55be 4405 8cbe a469 e63e
00000070: fa0c ad3e 500a b3be 5594 b13d 7459 e2bd
00000080: b74a 9dbe 9aba 703d f24b 66be 6d02 0fbf
00000090: 5a3d f0be 2c32 443c f6bb 51be 0a84 453d
000000a0: 1725 d6be 21fb 02be b852 86be f010 33bf
000000b0: e7b5 8abe 6a85 423d c8f6 11bd 76c7 edbc
000000c0: f9ef 47be 16ee ac3c 10db a6bd 9861 733d
000000d0: 5abc 73be edf9 64be 7af7 153d 70b4 b7bc
000000e0: eac8 3b3e 6c7c 0bbe 3f39 4abe 662d 92bd
000000f0: 7c64 0b3e 3613 573e 9e51 253e 7e84 36be
00000100: 4eb4 043e 43c1 9fbc 6d43 efbd 43e5 4cbc
00000110: d398 03bd dac1 46be 4c2c 48be a0fd e3bd
00000120: e20f d1bb b14e 1abe 578f 45be 5a3a 20be
00000130: e1c1 e93d 6eff cbbb 6069 723d 1827 edbd
00000140: 4272 83be 6784 8cbe eb51 d13d 1911 b13e
00000150: 550c ca3d 293d b9bd e95d ebbd 0eba 91bd
00000160: 35dc 70bd f276 2abe 4279 98bd 51a6 09bc
00000170: 8bbd b43d 3333 8ebe 69b3 893d 1db1 a43d
00000180: 1b3d a63e 408e 1abe 237a 06bd 7939 d73e
00000190: 411a ca3e fcaf f93d 1cb1 9b3e 6aec 49bd
000001a0: b691 ca3e 1fc0 873d 2491 a8be e5f3 9c3d
000001b0: 472f f33e 7e8f f93e a75f de3e f514 19bd
000001c0: 07fc 81be e5bc 863e 7992 fbbb 1efb 87be
000001d0: 6ea5 b0bb ca97 bfbe 8515 57be ade0 643e
000001e0: e0b2 8ebc c6f8 a53e 1063 05bb c3cb 60be
000001f0: 899b 68bc 25a6 babd 5673 6e3d 77a5 85be
00000200: 59c6 95be a8b8 6cba 1036 7a3e f6fd 433e
00000210: 0d8b 73be 2397 d03e 45ff a13e 935d 30be
00000220: fb81 9e3d 8c0c fbbd f7d3 a03e b88c 133d
00000230: b650 00be 1cfd 1a3f 4a53 6dbd 3d04 e53d
00000240: 21c6 3d3e e901 fabd 6fd0 b1be 9c39 4f3e
00000250: 3ce9 7bbe 1853 043e c520 6c3e 8aeb bb3d
00000260: 9aae 44bd 4884 17bd 6d39 2ebe 0993 1e3e
00000270: 3ae3 a13d 524a a43d f2cc fa3e 7076 4ebe
00000280: 89f7 d6bd 9cfa 36bd f00b 23be d4f3 3cbe
00000290: 3ad5 7cbd 08a7 713e 963b ad3e 3e86 1d3c
000002a0: b364 b8be 4ef2 1abd e8c4 873d e3c1 37be
000002b0: 6402 c2bd d605 c73e f4db 9e3e dfde 49bc
000002c0: bc4b 543e bd2e e63d 6df2 ff3d d338 103d
000002d0: f7b1 5b3e 18c5 963e c31e 02bf e458 53bf
000002e0: 086e 993e 6c27 6a3d 5f28 b93e 114c c13c
000002f0: 7bc2 77bd 2674 103e a2bb 54be 8d5c 43bf
00000300: 470c 1f3d df6c 12be 2044 9b3b cbf4 2cbe
00000310: e0fe c73e 2ecb 75be 89bb d0be 93e0 89bd
00000320: af69 ae3e 2155 dbbd dd65 073c 91e8 56bd
00000330: 4620 9e3d a1f0 02be 08ff cdbd b6ff c93d
00000340: 237e 9c3e fde2 18bd 5e81 0dbf 69fa 1f3f
00000350: f647 723f 5ee5 9d3e 38f9 4f3e e4ee c13d
00000360: 134f 15bd 69f7 f2be 0988 48be 39a9 2e3f
00000370: 252b 433f ca54 e7bd 7ad8 20b9 d347 00be
00000380: 7b73 b6be 3742 0ebe c694 5cbe 2491 9b3d
00000390: f7f2 ecbe 1599 7f3d cd9c 7e3e 26a6 e73d
000003a0: a0d0 e5be addf 26be ebb6 40be bc89 43bc
000003b0: 117a 66be 791f 34bd 7c39 8c3e 71fb aa3c
000003c0: 0d0b 4cbd e145 45be 82e6 cd3d 9fc1 fbbc
000003d0: 3018 a9be ebee 0e3e 5209 1bbe ee84 543c
000003e0: 1a0e 35bd 7294 7bbe a3f7 223d e2a9 86be
000003f0: 2839 f8be 060c d53d 3ae1 7fbd d157 d23c
0.62576324 0.1274374 0.15719843 0.1199908 -0.14844051 0.23397937 -0.44821203 0.09200291
0.6579491 0.12907493 0.3793244 0.221214 -0.2732702 -0.20703943 -0.6924876 -0.11544767
0.04904234 -0.18562791 -0.07704821 0.081341766 0.23968871 0.004077014 -0.24014726 0.18233027
0.3345918 -0.20896953 -0.27347767 0.45002472 0.33798963 -0.34968805 0.0867087 -0.11052218
-0.30721065 0.058771707 -0.22489908 -0.55863076 -0.46921808 0.0119748525 -0.20481858 0.048221625
-0.41825172 -0.1279111 -0.26234984 -0.6994772 -0.27091905 0.047490515 -0.03563574 -0.029025774
-0.19525136 0.021109622 -0.081472516 0.059419245 -0.23802319 -0.22360964 0.036612965 -0.022424906
0.18338361 -0.13621682 -0.197484 -0.07137565 0.1361255 0.21003422 0.16144416 -0.1782398
0.12959406 -0.019501334 -0.11682782 -0.012505832 -0.032128166 -0.19409886 -0.19548148 -0.111323595
-0.006380067 -0.15069081 -0.19292961 -0.1564726 0.114139326 -0.006225518 0.059182525 -0.11579722
-0.2567311 -0.27444765 0.10220703 0.34583357 0.098656334 -0.090448685 -0.11492521 -0.07115565
-0.058803756 -0.16646937 -0.07445003 -0.008401469 0.08825215 -0.27773437 0.06723673 0.08041594
0.32468495 -0.15093327 -0.032831322 0.42036036 0.39473155 0.121917695 0.3040856 -0.049297728
0.39564294 0.06628441 -0.32923234 0.07663707 0.47497007 0.48742288 0.43432352 -0.0373735
-0.25387594 0.2631599 -0.007677373 -0.26558775 -0.0053908145 -0.37420493 -0.21004303 0.22351332
-0.017419279 0.32416362 -0.0020353235 -0.21952729 -0.014197239 -0.09113721 0.05821546 -0.26102802
-0.2925289 -0.00090302015 0.24434686 0.19139847 -0.23783512 0.40740308 0.31640068 -0.17223196
0.077396356 -0.122582525 0.31411716 0.03602287 -0.12530789 0.60542464 -0.05794076 0.11182449
0.18532611 -0.122073956 -0.34729335 0.2023682 -0.2460069 0.12922323 0.23059376 0.09175785
-0.048018076 -0.036991388 -0.17014094 0.15485777 0.07904668 0.08021988 0.48984486 -0.20162368
-0.10496432 -0.044672593 -0.15922523 -0.18452388 -0.061726786 0.23598874 0.33834523 0.009614525
-0.36014327 -0.037828736 0.06629354 -0.17945056 -0.09473112 0.3887164 0.31027186 -0.012321203
0.20732015 0.11239383 0.12497411 0.03521044 0.21454607 0.29447246 -0.5082819 -0.8255751
0.2996676 0.057166502 0.36163613 0.023595842 -0.060488205 0.14106807 -0.20774701 -0.76313096
0.038830068 -0.14299344 0.0047383457 -0.16890256 0.39061642 -0.24003288 -0.40768078 -0.06732287
0.34065005 -0.107095964 0.008264032 -0.052467886 0.077209994 -0.12787105 -0.10058409 0.09863226
0.30564985 -0.037325848 -0.55275524 0.6249147 0.94641054 0.30839056 0.20309913 0.09469393
-0.036452364 -0.47454384 -0.19583143 0.68226963 0.7623771 -0.11295469 -0.00015339433 -0.12527399
-0.3563498 -0.13892446 -0.21541128 0.07596043 -0.46279117 0.06240185 0.24864502 0.11310987
-0.4488573 -0.16296263 -0.18819778 -0.011934694 -0.22507502 -0.043975327 0.27387607 0.02087185
-0.049815226 -0.19264938 0.100537315 -0.030731974 -0.33026266 0.13958327 -0.15140274 0.012971146
-0.0442029 -0.24568346 0.039786946 -0.26301485 -0.48481107 0.10402684 -0.062470652 0.02567664

fc1.bias f4 [128]
00000000: 79d8 42bf 4d8a fdbe 8009 3b3e 655d 17be
00000010: 9d5d 943d b94d 48be b785 813f 63e8 88be
00000020: f67c 6b3f 5415 fc3e c9b7 5c3f e43e 4dbf
00000030: 9a32 a1be 4e92 2b3f 9175 1a3e 1605 de3e
00000040: 2af7 303f f0ce 4e3f 7208 4abe 995d 15bf
00000050: 209c db3d 012b 103f 7755 0ebf 5b15 e1be
00000060: e46d 593f c947 16bd a79b 633f b7a5 3abf
00000070: cd27 b5bd 0828 1b3e c575 84be f759 ccbe
00000080: d269 0fbf c947 833e d7c4 bb3e daf6 23bf
00000090: cd3b 763e ebe6 e63d 512b 2a3f 56cf 0ebe
000000a0: 02df e93e 9f6b fbbd e84a a43e 610c cebe
000000b0: 0ddc 693e 5579 573f c068 5d3d 2c37 333e
000000c0: d5b7 e03e d689 03bf 4121 edbe 3715 c03c
000000d0: 6ee4 763c da25 193a 8510 833e 996b f7bb
000000e0: b800 b93c ac57 1f3f bd34 09bf d110 373f
000000f0: 9419 e2be 34e5 e2be 2374 1ebf 0778 cf3e
00000100: 2ffd e7be af0b 3bbf 3d99 0ebf ecf5 25bf
00000110: c32c 14bf 2f12 bbbe a082 a9be 3369 2ebe
00000120: 10bf d8be 4e9e cb3d c00b 7ebe fc64 0a3f
00000130: 56a7 35be f99d c33e 2020 0b3f 934c 8b3e
00000140: 9fe3 b63e 872a d23e 5f2c f3be cd83 193e
00000150: f6ef 16bf 7128 963e bb48 d73e aa41 e13d
00000160: 0da4 0f3e eacf 353e 4bf1 6c3e 48fd 353e
00000170: c5be 273d 1012 333f 37da 5bbf a977 a7be
00000180: 1fc9 333e ebc9 3ebf e25d 693f ada7 16be
00000190: 231e 2ebf e1bf 43bf 7548 34bf f815 e6bd
000001a0: 4317 17bf 9ca6 1cbe 1cc6 22bf 506b 5e3e
000001b0: 529f 343f c0ab e4bc d033 22bf 2f47 c63e
000001c0: c280 39be 4341 a23e 1e3b 9c3e d441 0b3e
000001d0: 8a70 4cbe 6663 153e 1c98 e0be 4338 c73e
000001e0: 09f6 bbbe ba7c a4be d8cf fb3e 0a1c aebe
000001f0: 7bc1 3abe e366 293f 134c 31bf ef4a d63e
-0.7611156 -0.49519578 0.18265343 -0.14781721 0.07244418 -0.19560899 1.0118932 -0.26739797
0.9198755 0.49235022 0.86217934 -0.8017409 -0.31483918 0.6702012 0.1508391 0.43363255
0.6912714 0.8078451 -0.19729784 -0.58345944 0.10723138 0.5631562 -0.5559916 -0.43961605
0.84933305 -0.036689553 0.8890938 -0.7290911 -0.08845482 0.1515199 -0.258711 -0.39912388
-0.56020844 0.25640705 0.36673614 -0.6404854 0.2404625 0.11274513 0.66472346 -0.1394628
0.45677954 -0.122763865 0.320884 -0.4024382 0.22837849 0.84169513 0.054054976 0.17501515
0.43890253 -0.51382196 -0.46314433 0.023447616 0.01506911 0.0005842127 0.2559854 -0.0075506684
0.02258335 0.6224315 -0.535961 0.71510035 -0.4416014 -0.44315493 -0.6189596 0.4052126
-0.4531035 -0.730647 -0.55702573 -0.6482837 -0.578808 -0.3653731 -0.3310747 -0.17032318
-0.4233327 0.099423036 -0.2480917 0.5406034 -0.17739615 0.3820646 0.54345894 0.2720686
0.35720536 0.4104807 -0.4749479 0.14991684 -0.589599 0.2932773 0.42047676 0.109988526
0.14027424 0.17755094 0.23138921 0.177724 0.040953416 0.69949436 -0.85879844 -0.3270848
0.1755719 -0.7452685 0.9115888 -0.147124 -0.68014735 -0.7646466 -0.7042306 -0.11234659
-0.5901987 -0.15297931 -0.6358354 0.21720624 0.70555604 -0.027913928 -0.6336031 0.38726184
-0.18115523 0.31690416 0.30513853 0.1359933 -0.19964805 0.14588699 -0.4386605 0.38910112
-0.36711147 -0.3212641 0.4918201 -0.34005767 -0.1823787 0.6617262 -0.69256705 0.41854045

fc2.weight f4 [3, 128]
00000000: 5f0c 85bf 5de2 60bc ab32 1dbc 299a 8b3d
00000010: 216e 3dbd 8cef e9bc 6ec4 b93e f539 a73e
00000020: 951b 033e fbbd c03e 22d2 883d 278d e8be
00000030: 1682 03bd c518 be3d ffc4 80bd 4c3f 60bc
00000040: 7960 1fbe c034 df3d 8e9f 943d 7de4 26bf
00000050: cc87 73bd 9593 893f e176 9fbd 10db aabd
00000060: 0bdd cf3e f15f d5bc 48cc 9c3e 6db2 89be
00000070: 78f5 083d 11ab 483d 7686 1bbe 6e72 04bf
00000080: 3069 73ba b69d 733f e60a 203d 9709 c7be
00000090: 5f8b 393a acda 45bd 895f 703e bb77 f33c
000000a0: 2a3a 993d 5ccd 84bd e622 053e bffb c0bc
000000b0: c130 7f3e 940b 45bc f804 443d 20c9 2f3e
000000c0: a77b 8dbc 0dde c4be ae68 06bf fc11 26bd
000000d0: 8ce2 c2bd e65c 413d f1b1 f43e f1e2 023e
000000e0: cef6 2dbd 8e9a 613e 1870 b8bd bb9e fc3e
000000f0: 632d ddbb 10cd 81bd 09a1 323d 5dba 883e
00000100: 3cfb e2be 5d3f d7bd a865 b4be 1c1c 4dbd
00000110: 46dc 34be 8fe7 b03c 4b09 08bf 7cca 393d
00000120: 5b7f 8fbe bc38 08bd 6c35 65bd e17f 393d
00000130: 3a9b 12bc 8174 ae3e 935e 153f b546 ce3c
00000140: d28a 0a3d 34ab 523e 7218 23be 7742 8f3e
00000150: 652a febe e096 323e 9d0b 0ebb e9ee 4d3d
00000160: 53aa 763c fa2a 843d d3e1 07bb 3e9d dcbd
00000170: 4390 b9bc 87ae 873e 4995 c4bf 7d12 62bf
00000180: e89d 9f3d 06e5 57bf c057 9a3e 28e8 a2bc
00000190: 8865 9cbe 5593 b3bd eed7 b0bc 68b3 8fbc
000001a0: e34e 16bd bce4 b83c 0ad4 1bbf e72c 163d
000001b0: 3ce5 913f c5ea d23d 93a3 4dbd 3701 18bc
000001c0: 9933 9cbe ce56 4a3c f053 283d bd1f 26bc
000001d0: 15c2 47be 0fc2 86bb d0e3 50bd 76a3 8abc
000001e0: 1e73 c1be 7a2d 55bd 2baa 3a3d f2ca 9bbd
000001f0: 72df 153f 5246 ba3e c24c c7be 3093 273c
00000200: dabb 583e 3d75 1a3b aa8b 513c 3978 8abb
00000210: 9dea 99bc c895 003d 67d9 483f e0fc 7dbd
00000220: 9d67 563e 5dac f73b 88a0 c23d 2485 9cbe
00000230: bdba 15bd 2cb2 01c0 3fee b13b 82a7 043d
00000240: 97d8 273e 2b01 223d d9e0 39bd 52ae b83c
00000250: 6579 89bc f2ed c1bd a3c7 e8bc 85d2 e9bc
00000260: 9d60 ad3e 6c02 383d f487 483f 58b7 dabe
00000270: 43c5 46bd e749 04bd 4c28 7d3b 91a7 94bc
00000280: d276 24bd ac91 27bd 4fa6 71bc 1088 e0bd
00000290: a6b1 3ebd d32a 173d 957c d53d 61ca 91bd
000002a0: 1e3c 20bc 4117 053d 939f bf3c 95e0 603d
000002b0: cc8e 47bf 2e06 87bd b65b ff3c 1e6e 1abe
000002c0: 94f2 2b3d 7e0b fa3c b32d 31bd dcbc adb9
000002d0: 2bc7 90bd 897c 7c3d 6d9e 57be 6bc1 e73c
000002e0: 5053 fabc 4206 99bc 3a47 95bd 7d7b c53d
000002f0: 36df ed3c 5c0b a8bc 5cea 323d a065 c8bd
00000300: 2629 753d 8723 8abd d244 01bc 4235 17bd
00000310: c145 263b a4f6 d33b 7bc1 50bd 3094 35bd
00000320: b769 16bc f877 b3bb 5e4b 4e3c bd9b a13c
00000330: 279e 8c3d f6b6 29be aa37 6a3d 9e92 e23c
00000340: 7dcb fe3c 19de f0bf ba0f 24be e7ab 9bbf
00000350: 1a24 98be 9f7c 113d 7fd8 813d b7b7 7b3d
00000360: b22b 203b bffb 673a 2338 813c 5fca 25be
00000370: 3789 5e3d 9bd0 873c a8c4 103e 852e 0cbd
00000380: b0f2 a53d 64bd 22be 06e1 2bbd 8598 91bb
00000390: 912a 3dbd ffed 57bd 9b1f b0bc 25b7 a23d
000003a0: f17a 40bc 7da5 0abd 4eb7 06be ace4 02bd
000003b0: 1165 353d b771 bc3c 944a 053c 79ab 773d
000003c0: 60b0 003d d4fb 2a3d df94 41bc 2b22 863d
000003d0: 2d2c 103e e3a6 843c a267 01bd d943 7a3d
000003e0: d263 64bd 88e9 6e3d 9b64 1fbd d18a 55bf
000003f0: 5505 ef3b 2ca3 29b9 6367 fdbd a58e 21bd
-1.03944 -0.013725844 -0.0095946 0.06816513 -0.046247605 -0.028556608 0.36282676 0.32661405
0.1280349 0.37644944 0.06680705 -0.4542019 -0.03210648 0.09282068 -0.06287574 -0.013686966
-0.15564145 0.10898733 0.07256995 -0.65192395 -0.059455678 1.0748163 -0.07786346 -0.08342564
0.4059833 -0.026046725 0.30624604 -0.2689394 0.033437222 0.048991267 -0.15188012 -0.51737106
-0.00092853885 0.9516252 0.039072894 -0.38874504 0.0007077958 -0.048304245 0.23473944 0.029720178
0.07481797 -0.06484482 0.13001594 -0.023557542 0.24920942 -0.012026686 0.0478563 0.17166567
-0.017270876 -0.3845066 -0.5250348 -0.040544495 -0.09515867 0.047207735 0.4779201 0.12781884
-0.0424717 0.22031614 -0.09005755 0.49339852 -0.0067497953 -0.06337941 0.043610606 0.26704684
-0.44332302 -0.105101325 -0.35233808 -0.050075635 -0.17662153 0.02159479 -0.5313918 0.04535912
-0.28026852 -0.03325723 -0.05595915 0.04528797 -0.008948142 0.3407326 0.58347434 0.0251802
0.033823796 0.20573121 -0.15927294 0.27980396 -0.4964172 0.17440367 -0.0021674403 0.05027667
0.015055257 0.0645351 -0.0020733967 -0.10772179 -0.022651797 0.2650034 -1.5358058 -0.8830946
0.0779379 -0.8433384 0.30145073 -0.019886091 -0.30546212 -0.08768336 -0.021587338 -0.017541602
-0.036696326 0.022570007 -0.6087042 0.036663916 1.1398082 0.10298685 -0.050204825 -0.009277633
-0.30508116 0.012349797 0.041095674 -0.010139403 -0.1950763 -0.004112489 -0.05099851 -0.016923647
-0.3778314 -0.052045323 0.04557244 -0.07607068 0.58544075 0.36381775 -0.3892575 0.010227963
0.2116541 0.0023568415 0.012789646 -0.0042257574 -0.01878863 0.031392843 0.7845673 -0.06200874
0.20937963 0.007558389 0.09503275 -0.30570328 -0.03655504 -2.0264997 0.0054300125 0.03238631
0.16391216 0.039551895 -0.045380447 0.02254406 -0.016781518 -0.094692126 -0.028415507 -0.028542766
0.33862773 0.044924185 0.7833245 -0.42718005 -0.048527967 -0.03229704 0.0038628755 -0.018146308
-0.04015238 -0.040910408 -0.014749124 -0.10963452 -0.046556138 0.036906075 0.10424153 -0.07118679
-0.009779958 0.03249288 0.02339152 0.054901678 -0.77952266 -0.065929756 0.03117166 -0.15081069
0.041979387 0.030523058 -0.043256473 -0.00033137843 -0.07069238 0.061642203 -0.21056528 0.028290471
-0.030557305 -0.018679742 -0.07288976 0.09642694 0.0290371 -0.02051323 0.043680534 -0.097850084
0.059853695 -0.067450576 -0.007889943 -0.036916025 0.0025371166 0.006468611 -0.050965767 -0.044330776
-0.009180478 -0.005476948 0.012591211 0.019727582 0.06866103 -0.165737 0.05718199 0.027657803
0.03110289 -1.8817779 -0.16021624 -1.2161835 -0.29715043 0.03551924 0.063401215 0.0614545
0.0024440107 0.0008849464 0.015773838 -0.1619048 0.054330077 0.016578963 0.14137518 -0.034224052
0.081029296 -0.1589256 -0.041962646 -0.0044432306 -0.046183173 -0.052717205 -0.021499446 0.07945088
-0.0117480615 -0.03384923 -0.13155863 -0.03195636 0.044285838 0.023003442 0.008135457 0.060466263
0.031418204 0.04174407 -0.011815279 0.06549486 0.14079352 0.016192859 -0.031592973 0.06109986
-0.05575926 0.05832818 -0.038914304 -0.8341494 0.007294337 -0.00016177882 -0.12373235 -0.039442677

fc2.bias f4 [3]
00000000: c541 703e 87d1 6b3e 0913 f9be
0.23462589 0.23029147 -0.48647335
