progetto_24/modello57_16.pth (torch, 69688 bytes, 4 tensors)

fc1.weight f4 [128, 128]
00000000: 7def 843d 651e 8d3c b235 7cbd c0e8 dfbc
00000010: 01a9 23bd 35fb 2c3d 37eb 83bc 6983 36bb
00000020: 3dcf 533d 9870 1c3d dd55 283d 03dc a4bb
00000030: 3cae d3bd 0bce d2bd 99a7 b8bd 19ca c3bd
00000040: 9b40 90bd df3c cabd 7761 57bd f797 7abd
00000050: f890 01bd 0605 df3c 30d1 91bd 55df 7a3d
00000060: 9dc9 c73c 8c37 cdbd 57e1 e4bd a8ff 803d
00000070: 1fa4 c2bb c31d bdbd bdd5 3d3d ec0b 34bd
00000080: c70f 4abd 5882 d33c f16f 99bc 0f4c 2cbd
00000090: bab6 95bd d19d 33b9 c7ea 95bd d32a 883d
000000a0: f481 a1bd f7d9 33bd c858 0abd 00ea a1bd
000000b0: 76f8 e73b fd78 f53b 04c9 6abc 827a 293d
000000c0: d7c5 acbd 2154 55bc 7d76 43bd f233 153c
000000d0: 63db c3bd 78fb c5bd 9114 e6bb e0bc dcbc
000000e0: 2cce 483d e65c 8dbd 3f0c b7bd 9c1d 19bd
000000f0: 3dcf 163d 0d43 683d 464a 163d 2503 a8bd
00000100: 0455 033d 571f d8bc 7fb0 74bd 1f78 80bc
00000110: 2eb7 b0bc 354a aebd d4cd b3bd e3b5 70bd
00000120: 8e59 84bc a25f 94bd 073f b1bd 5e26 89bd
00000130: c442 f63c 7190 98bc 65f5 253b 99f2 7bbd
00000140: f03c ddbd 0043 c0bd 6d7b 133d 2168 703d
00000150: 5985 fcbc d8c5 0cbc 2e39 64bc 4f12 f5bc
00000160: 2fea 33bd 8336 5fbd b33c cdbc 8e84 9abd
00000170: c561 28bd cd44 93bd 6ce1 473d d0ee ad3c
00000180: ddd8 90ba 55d6 11bd d549 d63c 7245 843d
00000190: 2841 1d3c 7b5d babd d360 46bd 5db9 86bd
000001a0: 135c 213d b60f 213d 713a b7bd 4dae 80bd
000001b0: 3016 393d cae5 a23c e2ec e43b 4232 6bbd
000001c0: 6ac8 3fbd 8d6e fe3c d3cc 02bd 5728 b0bd
000001d0: 4404 eabb a573 cfbd 9409 d4bd 5352 823d
000001e0: b429 533d c561 773d 0490 adbc 6bc6 86bd
000001f0: c777 05bc c26a b0ba 6600 60bb 9b9d d2bd
00000200: 08eb 33bd bd7e cfbc 1071 40bd 2155 8ebc
00000210: f8d1 4ebd 11df 523d b134 e33d f47f 80bd
00000220: be36 e83d 9359 8ebd afdd c4bc cb33 58bd
00000230: c5ae 85bb 9290 fd3d 8119 bbbc a3b3 2f3d
00000240: 3373 e43d 9027 e3bc 9d25 23be 36e8 493d
00000250: 117e 4bbd 75a9 353e 9f9b 96bc 8576 64bd
00000260: e69a 823d 5bed 8fbc 2dbe fdbd 85b8 133d
00000270: 36bc 973d 23a3 1d3e db14 7e3d c086 b8bd
00000280: 1a8a 073d c346 8ebd c626 d8bd 0360 0b3d
00000290: 3f44 ff3c ee1f d83d 59ab 8a3d 1b4d 59bc
000002a0: e8e3 28bd a148 95bd 5528 12bd 8f2f 3e3d
000002b0: 6d25 fe3c e29d 1d3e 78e8 693d efff 97bc
000002c0: 9058 c73d 6d7c a0bd c27b 16be f657 5abc
000002d0: 9b80 a73c 52d9 323e 36fd 9bbd 65c7 78bd
000002e0: 8297 be3d cffe 92bd a6d0 0bbd 84f2 f1bc
000002f0: a464 c7bd 9086 0d3e ce84 2e3d e09a bebc
00000300: dacd a03b 7f6c 70bd 4abd 17bd b8e9 e5bd
00000310: f8ee fc3c 70be dd3d 3b8d 91bd 62df a4ba
00000320: c5f5 d83d 6047 1cbd 48e7 dcbc d980 9abd
00000330: d63e b7bd 4738 1b3e b31d 2f3d c806 653d
00000340: e8ed bf3d 59a2 743d ab40 1abe 9d88 24bd
00000350: 2ef7 77b9 4cf6 533e 51ec ad3d ec2e 013d
00000360: 021e f2bc b78d a2bd 579d fcbb 9f37 a6bc
00000370: f706 95bd 72fd 6a3d 77b0 eb3c 1f4d 50bd
00000380: a31a c4bc 961a b4bb 55ae 1bbe fedf 933c
00000390: 4173 b0bd e47f 183e b6e9 b73d f694 693d
000003a0: 60a9 6cbd df66 30bc 20c1 1ebe 6a04 17bd
000003b0: a449 1dbc ce31 db3d 5a56 e13d efbe c83c
000003c0: 9398 593c 9c5c 5dbd 6c6e 73bd a27c 42bd
000003d0: 5e9f a4bd 9369 f33d b3df 46bd e235 d03b
000003e0: 8a75 d63b 3aac 9cbd a7d0 c4bd 9ef9 18be
000003f0: ad39 0ebe 6089 ce3d 0183 80bc 9d7b 733c
0.06490991 0.017226407 -0.061574645 -0.027332664 -0.039956097 0.042231757 -0.01610337 -0.0027849323
0.05171131 0.038193315 0.04109751 -0.0050311103 -0.10335967 -0.10293206 -0.09016342 -0.095600314
-0.070435725 -0.098748915 -0.052583184 -0.06118008 -0.031632394 0.027224075 -0.071199775 0.061248142
0.024388129 -0.1002036 -0.11175793 0.062987626 -0.005939975 -0.09234192 0.046346415 -0.043956682
-0.049331453 0.025818989 -0.018730136 -0.042064723 -0.07310243 -0.00017129561 -0.07320171 0.06648793
-0.07886115 -0.04390904 -0.033776075 -0.0790596 0.0070791794 0.0074912296 -0.014330152 0.0413766
-0.084361725 -0.013020546 -0.04772042 0.009106623 -0.09563329 -0.096671045 -0.0070214947 -0.026945531
0.049024746 -0.069024846 -0.08937883 -0.037381753 0.03681873 0.05670457 0.036691926 -0.08203725
0.0320635 -0.026382132 -0.059738632 -0.015682278 -0.021571722 -0.085102476 -0.08779493 -0.05876721
-0.016155984 -0.07244803 -0.086546 -0.06696771 0.030061133 -0.018623563 0.0025323268 -0.061510656
-0.108026385 -0.09387779 0.03600638 0.058693055 -0.030825304 -0.0085920915 -0.013929648 -0.029915957
-0.043924507 -0.054495346 -0.025053358 -0.07544814 -0.041108865 -0.07190857 0.048798963 0.021232039
-0.0011050958 -0.035604794 0.026158253 0.06458558 0.009598054 -0.09099861 -0.048432183 -0.06578324
0.03939445 0.039321624 -0.08946694 -0.06283245 0.045187175 0.019884963 0.0069862464 -0.057420976
-0.04682199 0.031058574 -0.031933617 -0.08601444 -0.007141622 -0.10129479 -0.103533894 0.06363358
0.051553443 0.060395975 -0.021186836 -0.06580814 -0.008146233 -0.0013459551 -0.0034179925 -0.10283967
-0.043925315 -0.025328988 -0.046982825 -0.017374577 -0.05049321 0.051482264 0.110940345 -0.06274405
0.11338566 -0.06950679 -0.024031488 -0.05278377 -0.004079672 0.1238109 -0.02283931 0.042895924
0.11154785 -0.027728826 -0.15932317 0.04929372 -0.049680773 0.17740424 -0.018384753 -0.05577709
0.06377201 -0.017569235 -0.12389789 0.036064643 0.07408945 0.15394263 0.062031608 -0.090100765
0.03309069 -0.069470905 -0.105542704 0.03402711 0.031160472 0.10552965 0.06770963 -0.013263012
-0.041232973 -0.072892435 -0.035682995 0.046432074 0.031023705 0.15392259 0.057106465 -0.018554656
0.09733689 -0.07836232 -0.14695647 -0.013326636 0.020447066 0.17465714 -0.076166555 -0.060737032
0.093062416 -0.07177507 -0.03413453 -0.029534586 -0.097359926 0.13820863 0.04260712 -0.02326721
0.004907352 -0.05869722 -0.037045754 -0.11226219 0.030875668 0.10827339 -0.07107016 -0.001257878
0.10593752 -0.038154006 -0.026965752 -0.07544107 -0.08947532 0.15158187 0.042752933 0.05591467
0.09371549 0.05972514 -0.15063731 -0.040169347 -0.00023647837 0.20699424 0.084923394 0.03153889
-0.029555324 -0.07937186 -0.007709186 -0.020290194 -0.07276719 0.05737061 0.028770668 -0.0508548
-0.023938483 -0.0054963334 -0.15203221 0.018051144 -0.08615733 0.14892536 0.08980124 0.057026826
-0.057778716 -0.010766714 -0.15503359 -0.036869444 -0.009600077 0.10702859 0.110027984 0.024505107
0.013281005 -0.054043397 -0.05943148 -0.04748214 -0.080382094 0.11885371 -0.04855318 0.0063540796
0.0065447735 -0.07650037 -0.0961011 -0.14938971 -0.13889189 0.10084796 -0.015687468 0.014861015

fc1.bias f4 [128]
00000000: bfa0 98bb f3b5 b93e aab7 243f 8673 52bd
00000010: 6764 bebd 4b4a 76bd c505 ecbe 58ab debe
00000020: 80d0 64bc 316d 233b 9ba5 cfbd 0958 133c
00000030: d111 4f3c 47f4 76be 2674 523e a2ff 113f
00000040: a620 553e e1e5 00bf 167b 353d be38 31bf
00000050: d381 11be 60b9 3a3e 5262 823e a659 5c3f
00000060: 454e 74bd ce99 f33c 2f28 023f c7fb 3fbe
00000070: abce acbd 3bc4 babd 001d a9be 3096 1bbe
00000080: d113 0fbf 205a bb3a 553a 0f3c 428a 09bf
00000090: 732d 51bd c308 53bd 5ae9 45be 8fba c5bd
000000a0: aad1 ed3e 697f c13e 9312 893e 70d9 dc3e
000000b0: 0bed 70be f01d c63e 4fef 873d 3f4a c1bc
000000c0: 8853 d03c 2c65 4c3b 0866 78be 2484 8d3d
000000d0: 960c b6bd 5cea c7be c48a 253f bd6c a9be
000000e0: be16 943e 5f11 15bf dede e13c 8037 4c3f
000000f0: 264a 043d c86f 42be cb59 653d 4dfc febe
00000100: 5cf9 a1be c6ef d53d e527 023f 7291 ddbd
00000110: 3c21 e5bd cead 68bc 0a9b 01bf b5e7 133f
00000120: 429e 5e3d e79e e03d c8b9 10bd 5d74 003f
00000130: 3451 06bc 1800 e5be e3cb 233f 8650 713d
00000140: 90d3 e63e 7215 47bd cb6a 763d ed36 42be
00000150: 1563 203f a016 adbd 7bfd b4bd 6b2c 06bf
00000160: f4d9 f4be 549f 1e3e 40c7 55bd db17 6c3c
00000170: 92cc d6be 474e 4bbe 4906 1e3e 0f0f 0d3f
00000180: fb64 f2bd 36b2 e2bd 1c49 103f 58ef dc3b
00000190: 21a2 363e d5c2 d53d 775f 343d c30a a33e
000001a0: 40d2 1a3e 100b 10bf 9c97 d83c 12f1 35bd
000001b0: a7e3 953d 0aea 2bbd 2427 b9be 6bd8 38bc
000001c0: fbc9 93be 2208 7abd c36a a8bd d6d1 013d
000001d0: 4ce8 95bc bd46 fabe 2ef5 783d ba68 6ebe
000001e0: 1ba3 84be f5c2 14bf e5cc eebe 250a cebe
000001f0: 1738 29bc 7235 c33c 7d90 b3be ae55 8ebe
-0.0046578343 0.3627163 0.6434275 -0.051379703 -0.09296494 -0.060129445 -0.46098152 -0.434901
-0.013965726 0.002493691 -0.101390086 0.008993157 0.012638525 -0.24116622 0.2055212 0.5703069
0.20813236 -0.5035077 0.044306837 -0.69227207 -0.1420968 0.18234777 0.25465637 0.8607429
-0.059644956 0.029736426 0.50842565 -0.18748389 -0.08437856 -0.09119459 -0.33029938 -0.1519401
-0.5588961 0.0014293827 0.008741935 -0.5372659 -0.051068734 -0.051522028 -0.19327298 -0.09654724
0.46449023 0.3779252 0.26771984 0.43134642 -0.23527925 0.38694715 0.06637441 -0.023594974
0.025430456 0.0031188233 -0.24257672 0.069099694 -0.08889119 -0.3904599 0.64664865 -0.33090773
0.289236 -0.5822963 0.027572092 0.79772186 0.032297276 -0.18987954 0.055993836 -0.49801865
-0.3163556 0.10446124 0.50842124 -0.10818757 -0.111879796 -0.0142015945 -0.50627196 0.5777543
0.054350145 0.10967808 -0.035333425 0.50177556 -0.008198071 -0.44726634 0.6398298 0.058914684
0.45083284 -0.048604436 0.06016044 -0.18966265 0.6265119 -0.08451581 -0.0883741 -0.52411526
-0.47822535 0.15490466 -0.052191973 0.014409984 -0.4195295 -0.19854079 0.15432085 0.551011
-0.11835667 -0.11069147 0.56361556 0.006742399 0.17835285 0.10437552 0.044036355 0.31844148
0.15119267 -0.5626688 0.02643948 -0.044419356 0.07318812 -0.041971244 -0.36162674 -0.011282067
-0.28865036 -0.061042912 -0.08223488 0.031694256 -0.018299244 -0.48882094 0.060780697 -0.23282138
-0.2590569 -0.5810998 -0.46640697 -0.40242115 -0.010328314 0.023829196 -0.35071173 -0.27799743

fc2.weight f4 [3, 128]
00000000: 66b8 143d 2e95 0c3c 1616 a73d e3cb 6abd
00000010: 86eb e23c 5af7 0a3e 993e 2dbe 56e2 debc
00000020: 1f40 d3bc 6c15 13bd 27b3 003d e906 823b
00000030: 7f3f 63bc 7957 ab3b 1eb2 bebc 289e a73e
00000040: 06e8 4c3d f8b0 88bd e9d6 babc 8361 ecbe
00000050: 8180 3ebe 27bd 90bc bb0a 053d 20d1 833e
00000060: 6dec c0bb 5ff9 c4bd 5982 87bc 7b42 453b
00000070: 05cc 613d 324b 973d 58fc d0be d835 11bd
00000080: a966 fcbe 28ee 5cbd a20d 4dbc 399f 85be
00000090: 4d49 033b 5f0c 30bd 7397 693d c28b 8dbd
000000a0: 4cea 4d3e 6f63 a73b f2e9 3e3d c1cc b13b
000000b0: 2ad0 8abb 65ee 07bc c3cb fe3c 6150 3cbd
000000c0: c164 fd3c 1e98 403d e1c1 39bd 79e8 243d
000000d0: e777 c9bd 4eb7 84be 47c8 203e 4498 22be
000000e0: a43b 293d 955d a7bd be17 3cbb 0516 733e
000000f0: fa64 06bd fefa 45bd 7744 5dbd e510 91be
00000100: d4a8 52bd ab2a 14bd 3783 e73d 0599 93bd
00000110: a2e7 2dbd c499 6c3d fbb7 4fbe caac 723f
00000120: 4567 75bd 0b45 5d3d 75d0 ab3c 16bb 693d
00000130: 9800 6d3d b767 5abd b5eb 263d b69b 73bd
00000140: a519 e13d e5b0 96bd 94a0 babd 42be d7bd
00000150: dfb9 8d3c 0227 83bd c7ea 883d df05 cdbe
00000160: ff89 cdbd 3982 ee37 0f46 8abd 4e11 44bd
00000170: dd1f 0cbe 09a1 1fbc 7c11 0cbd 6953 473f
00000180: 0c1b 5a3c a48d febc 8101 a43d 71c0 0638
00000190: 6cbb 693d 0508 443c c401 9a3c d641 753d
000001a0: fa8b aa3c bb1f a8be 1e10 2c3d 3239 fe3b
000001b0: 6215 963d 62e0 0ebd ebf2 83bd e0b9 0cbe
000001c0: 946c 1e3d f6e5 2dbd bfff da3b ef46 46bb
000001d0: 2ebb b8bc 73ff dfbe 68fd 36bd 1b3c c13b
000001e0: 800c 91bd 5cf2 51be 0fb0 bfbc c736 ce3b
000001f0: cd16 343d 0979 a1bd e0d2 e9bc e4b6 c6bb
00000200: c99b 5bbd 32db 433a cd81 8a3d 1fd5 be3b
00000210: 425d 523d 0ab1 50bc 0d14 b9bd ee10 803d
00000220: cea1 00bd 0320 b03c 4029 5ebf e2b2 8b3d
00000230: 3960 7a3d 9edc 283d 19ed 153d 94df e73d
00000240: 287c bf3c 8a3b 17bd cfa2 46ba 78c1 65bd
00000250: 3598 263d 9e40 5ebc 79a2 10bd 07dd c33d
00000260: adb9 e1bb 169d 4f3d 3164 efbc 45a2 e63c
00000270: 8d75 a1bd a199 ee3c ab55 043e 3f40 fcbb
00000280: 19a9 81bc 58c1 15bb 2efa 11bd 9796 cabd
00000290: 1c37 ffbc ddcb 833d 7b7c 603d 20ca 893d
000002a0: f728 be3b 93b9 23bd eea9 1d3c 8adc 8abc
000002b0: 2275 a7bc 87dd eebc 5c71 073d c46e a23d
000002c0: b786 4d3c be6c 11bd 07c6 2dbd d09d 3bbc
000002d0: e25e 2a3d 273d d03c 7d85 a4bd 0d0b f63c
000002e0: 87e2 40bd 436c dd3a e453 ec3c d660 22bf
000002f0: f23a 05bc dd71 3fbc 6486 c6bc fb25 003e
00000300: f0d9 8abb 49b9 f6bc 16d9 c23d f6e3 1ebc
00000310: 162e fabb 1acb 843d 29a3 4ebd b03f 9cbd
00000320: 4a06 9cbb 12db d63d 182f 55bd b298 d1bc
00000330: 6de9 d93c 7865 163c 60b7 84bd 35fe 103d
00000340: 61df a5bd eb51 4b3d 02b1 603d 8de4 9ebc
00000350: f6be d03c 77bf f83c 56f1 3f3d 3f05 663d
00000360: 8d17 0cbe cc38 13bc 388b a7bb 292e d6bc
00000370: b858 68bd f9b2 bb3c 44f4 5cbd cc75 a6bc
00000380: 69c2 453d 3626 e23c 8831 ab3c f085 cabc
00000390: 7f6c 9a3d e2d2 aa3c 93ea 843d f2e2 1cbd
000003a0: 2803 61bd 3257 38bd 5680 4b3d af58 8ebd
000003b0: 840f a8bc 24be b3bd ea1e c03c 5e38 bd3c
000003c0: 09eb 9d3c 16c1 863b 32df 70bd 1139 333d
000003d0: 80ab 003d 1e4b 92bd 7bf7 12bd b707 a0bc
000003e0: 2f88 3abc a77d 0dbe 3486 18bc a513 6fbd
000003f0: 3d05 883d af93 95bd 1919 58be a8df 7c39
0.03630867 0.008580489 0.081585094 -0.057323348 0.027700197 0.1357092 -0.1691841 -0.027207535
-0.025787411 -0.0359091 0.031420853 0.003968109 -0.013870119 0.0052289334 -0.023278292 0.3273785
0.050025962 -0.06674379 -0.022807555 -0.46168146 -0.18603708 -0.01766832 0.032480936 0.25745487
-0.005887559 -0.09617876 -0.016541647 0.003009944 0.05512621 0.07387389 -0.40817523 -0.03545174
-0.49297073 -0.05393806 -0.012515457 -0.2609804 0.0020032704 -0.042980548 0.0570292 -0.06911422
0.20108908 0.005108289 0.046609826 0.00542602 -0.004236241 -0.008296584 0.03110302 -0.045975093
0.030931832 0.04702007 -0.045350913 0.040260766 -0.09837323 -0.259211 0.157014 -0.15878397
0.041316643 -0.08172146 -0.0028700675 0.23738869 -0.032811143 -0.048335068 -0.05402037 -0.28333202
-0.05143054 -0.036173504 0.11304324 -0.072069205 -0.04245723 0.05776383 -0.20285027 0.94794905
-0.05991294 0.054020923 0.020973423 0.057063185 0.057861894 -0.053321566 0.04075213 -0.05947467
0.109912194 -0.07357959 -0.09112659 -0.10534336 0.017300544 -0.064039245 0.06685405 -0.40043542
-0.10036086 2.843245e-05 -0.06751644 -0.047868066 -0.1368403 -0.009742984 -0.034196362 0.7786165
0.013312113 -0.031073399 0.08008099 3.2127315e-05 0.057063505 0.011964803 0.01879967 0.05987724
0.0208187 -0.32836708 0.042007558 0.007758283 0.07328297 -0.034881957 -0.06442817 -0.1374278
0.038677767 -0.042455636 0.0066833193 -0.0030254682 -0.022550192 -0.4374958 -0.04467526 0.0058970577
-0.07082462 -0.20502609 -0.023399381 0.006293151 0.043967057 -0.07884414 -0.028542936 -0.0060642827
-0.053615365 0.00074713223 0.06763039 0.005823746 0.05135847 -0.012737522 -0.090370275 0.06253229
-0.03140431 0.02149964 -0.8678169 0.068212286 0.06112692 0.041226022 0.036603067 0.11321941
0.023374632 -0.036922015 -0.0007577361 -0.05609271 0.0406725 -0.013565211 -0.035311196 0.09563642
-0.0068885894 0.05068692 -0.02922258 0.028153548 -0.07883749 0.02912599 0.12923305 -0.0076980884
-0.015827702 -0.0022850838 -0.03563898 -0.09892004 -0.031154208 0.06435368 0.054806214 0.067280054
0.0058032232 -0.0399719 0.009623034 -0.016950864 -0.020441595 -0.029158367 0.033067092 0.07931283
0.012544326 -0.035504095 -0.04242518 -0.0114512 0.041594394 0.025419785 -0.08033273 0.030034566
-0.047091033 0.0016893226 0.028848596 -0.6342901 -0.008131729 -0.011684862 -0.024234004 0.12514488
-0.004237406 -0.030117648 0.09514062 -0.009697905 -0.0076348884 0.06484051 -0.05044857 -0.07629335
-0.004761492 0.10491003 -0.052046865 -0.025585506 0.026600564 0.0091794655 -0.064802885 0.03539868
-0.08099247 0.04963867 0.054856308 -0.01939609 0.025481682 0.030364735 0.046861015 0.056157347
-0.13680859 -0.008985709 -0.0051130317 -0.026145058 -0.056725234 0.02291249 -0.053943887 -0.020319842
0.048281107 0.027606111 0.020897642 -0.02472207 0.07540225 0.02085251 0.06490054 -0.03830237
-0.05493465 -0.04500503 0.049682938 -0.06950509 -0.02051521 -0.08776501 0.023452241 0.023098167
0.019277113 0.004112373 -0.058806606 0.043755595 0.031413555 -0.07143234 -0.035880547 -0.019534929
-0.011385008 -0.13817464 -0.00930934 -0.058368344 0.06641624 -0.07303559 -0.21103324 0.00024115911

fc2.bias f4 [3]
00000000: 14f2 523e 59b8 d23e f731 29bf
0.20600158 0.4115627 -0.66091865
