progetto_24/modello57_4.pth (torch, 20528 bytes, 4 tensors)

fc1.weight f4 [128, 32]
00000000: ec8c 213e 82d0 933d 9c67 b6bd 3acf 20bd
00000010: 5cbb 84bd 7c2c ee3d 7956 3f3b 0942 d63c
00000020: ff8f 033e e069 e83d 293f ed3d 4443 ab3b
00000030: f9cf 44be 6700 32be aadf 15be 76ac 21be
00000040: 8ca3 e3bd 59ec 23be 39b7 92bd 8fe7 dbbd
00000050: 194f 45bd b1a2 b13d 84a2 ddbd ff97 193e
00000060: 1dd5 a03d 2700 26be 6b10 41be 3f3d 123e
00000070: 5294 723b c25c 1cbe f9f0 023e 4658 6cbd
00000080: 6e99 49be a9e9 f93c 752e 2e3d dba2 a0bc
00000090: 5556 5abe 6b01 fe3c 8fac cabd 4920 063e
000000a0: abed 83be d645 e0bd ccad b13c 41fc a0bd
000000b0: b092 3ebd 316e 283d ba8f 8e3c 0004 a83d
000000c0: 89ca 8abe e5a6 4dbd 82fa 0f3b 3eb1 e93d
000000d0: 71a2 7cbe 11b0 2bbe bdec da3c 9f23 5cbd
000000e0: efc0 a53b e8a3 23be 7022 84bd 6c50 3b3d
000000f0: b449 e33c 1699 0d3e a876 ea3d 730c 24be
00000100: 6c4e b73d 883d 85bc d44f aebd 6bf0 39bc
00000110: 0158 cdbc ad60 0fbe b5df 0fbe bb36 a1bd
00000120: 4576 debb 49df ddbd 7ee0 0dbe 6d86 e7bd
00000130: 4655 a03d 63b4 e7bb 36e3 233d 3ab1 a7bd
00000140: 8679 42be f5ac 1dbe 9dd8 d53d baa5 0e3e
00000150: d885 2fbd 0ed6 583c d725 6a3b ce7c e7bc
00000160: af35 72bd c9ef 99bd e993 96bc 635f 04be
00000170: c80a 81bd 1e67 e8bd d934 043e 2ecc 8b3d
00000180: 7928 13bd 4a27 69be 7d9e 5abd d717 823e
00000190: 58be aa3c 6247 1abe 5617 8cbe b81e 05be
000001a0: 5033 4d3e 49e2 df3d 4583 01be bdbb 0cbe
000001b0: a123 203d 09a4 a23d 76de 603d 8887 c2bd
000001c0: b861 0ebd e2a6 2dbd a987 f3bd 18ef fcbd
000001d0: 2128 50bd c588 17be df3c aabe fd6c 393e
000001e0: de03 853e 6fdd a23e 0ee6 283e 8652 1cbe
000001f0: 823c acbd a09a 4a3d b2d8 6f3e ff96 b1bd
00000200: 983e debd 2d72 393e de15 353e 3626 3dbd
00000210: fff9 d8bc fd6c db3c ce4d 58bd 4d90 efbe
00000220: f18b 223e 9d08 e03d 0dd0 503e 964b 23be
00000230: f6be 943d 388b cf3d 9a09 80be 1557 7dbe
00000240: c0a0 133e 0ee7 543e bc6b cfbd 1896 d2bc
00000250: c5cc 09bc 9841 1a3e 0226 39be 649c f1be
00000260: 97f2 903d e189 473e aade 60bd a185 1fbd
00000270: acea 833e c345 8e3d ff46 c9bc 22de 26bf
00000280: 9ef6 3a3d 21dc da3c b44f 7dbe 2867 4bbe
00000290: 09ec b23c 1eb7 993e a63c aa3e 6bc0 ca3c
000002a0: d8f5 efbd 64d2 fcba b806 f7bd ef4e 2cbe
000002b0: a439 8c3c 60d6 d63e 49a1 8c3e 1903 e43c
000002c0: de8c 293e d54e 57bc 10cb afbe a36e 98be
000002d0: 62a3 62bc aeca f53e 3f07 09bc cca1 68bd
000002e0: 89c5 7e3d 2735 1fbc 3b00 11be 7ec2 c6be
000002f0: cd44 92be a26b da3e f24e 5b3e 307c b33c
00000300: 2174 083d c408 77be 801e e9bd 386f 02be
00000310: e09a 443e b650 1ebe ff77 90be 62d4 15bd
00000320: a866 943e 85db ecbd 3bad 54bc 4c1f ddbd
00000330: b274 96bd 616b 77bd 15fb 503d 7c81 9f3d
00000340: eafc 973e 2b44 c63d e3ea 69be 7561 473c
00000350: 3937 033e 3f50 753d 795d 193e 86be 043d
00000360: 38bf 103c 69b6 61be ffb7 c43c 5010 973d
00000370: c938 113c 1c12 6ebe 8f8e 50bc ec53 20be
00000380: fba4 b7be 4200 3ebd a6ec 02be b1a3 89bd
00000390: b8ca cebe f2f1 0c3e b61f 903e 3e99 a33d
000003a0: 0d6f dfbe 38a0 b0bd a297 fdbd 7078 febd
000003b0: 68d5 76be dd31 863d 2348 8a3e 20a6 933c
000003c0: d209 8cbe b2b0 2dbe d404 c03d 3c5a 00be
000003d0: 8629 c4be 0a8c d23d efd0 57bd 590f 97bc
000003e0: b60a 9abe d3ba 64be 35d0 173d bf77 92be
000003f0: a41d fcbe fbe0 a23d 41c7 21bc 8b65 0cbc
0.15776414 0.07217504 -0.08906481 -0.039260127 -0.064810485 0.116295785 0.0029195829 0.026154535
0.12847899 0.11348319 0.115843125 0.0052265245 -0.1921996 -0.17382966 -0.14636102 -0.15788445
-0.111151785 -0.16008128 -0.07163853 -0.10737526 -0.048171137 0.08673609 -0.10822013 0.14999388
0.07853148 -0.16210996 -0.18853919 0.14281176 0.0037014675 -0.1526976 0.12787236 -0.05770137
-0.19687435 0.030506926 0.042524774 -0.019608906 -0.21321996 0.031006536 -0.09896194 0.13098253
-0.25767264 -0.1095082 0.021689318 -0.078606136 -0.04652661 0.04112071 0.017402519 0.08203888
-0.27107647 -0.05020799 0.0021969383 0.114107594 -0.24671341 -0.16766383 0.026724214 -0.05374491
0.0050584 -0.15980494 -0.06451881 0.045730993 0.027745105 0.13827929 0.11448413 -0.16020374
0.08950505 -0.016264692 -0.0851132 -0.011348824 -0.025066378 -0.14001723 -0.14050181 -0.07871767
-0.006789001 -0.10833604 -0.13855168 -0.113049366 0.078287646 -0.0070710643 0.040011607 -0.081881
-0.1899167 -0.15398009 0.10441706 0.13930407 -0.042852253 0.013234628 0.003572812 -0.028257754
-0.059133228 -0.075164385 -0.018381076 -0.12927012 -0.063008845 -0.11347793 0.12910785 0.068260536
-0.03592727 -0.22768894 -0.053373802 0.25408813 0.020842716 -0.15066293 -0.27361554 -0.13
0.20039105 0.10931832 -0.12647732 -0.13743491 0.03909648 0.079414435 0.054899655 -0.09498507
-0.03476116 -0.04239548 -0.118911095 -0.12350291 -0.05081952 -0.14798267 -0.33249566 0.18107982
0.25979513 0.31809565 0.16494009 -0.15265855 -0.084099784 0.04946387 0.23422506 -0.08671378
-0.108517826 0.18109961 0.17684123 -0.04617902 -0.026486395 0.026785368 -0.052808575 -0.4678978
0.15873696 0.10939143 0.20391865 -0.15946802 0.072629854 0.10133976 -0.25007325 -0.2474025
0.1441679 0.20791265 -0.101279706 -0.025706336 -0.008410637 0.15064085 -0.18080905 -0.4718963
0.0707752 0.1948619 -0.05489985 -0.038945798 0.25764978 0.069469 -0.024569986 -0.651827
0.04564535 0.026716294 -0.24737436 -0.1986357 0.021841066 0.3002252 0.33249396 0.024749955
-0.11716813 -0.0019288776 -0.120618284 -0.16826986 0.017117329 0.4196043 0.274668 0.027833508
0.16557643 -0.013141354 -0.34334612 -0.2977191 -0.013832899 0.48006195 -0.008363544 -0.056794927
0.062200103 -0.009717262 -0.14160244 -0.3882026 -0.28568116 0.42660242 0.21416834 0.021909803
0.033313874 -0.24124438 -0.113827705 -0.12737739 0.19199705 -0.15460476 -0.2821655 -0.036579497
0.2898457 -0.115653075 -0.0129807545 -0.10796985 -0.073464766 -0.06040514 0.0510207 0.07788369
0.29685146 0.09680971 -0.22843508 0.012169232 0.12814035 0.05989098 0.14977063 0.03240826
0.008834653 -0.2204224 0.024013517 0.07376158 0.008863636 -0.23249096 -0.012729301 -0.15657014
-0.35868058 -0.046386965 -0.12785587 -0.06720675 -0.40389037 0.1376417 0.28149194 0.07988213
-0.43639413 -0.08624309 -0.12382437 -0.124253154 -0.24104846 0.065524794 0.2700816 0.01802355
-0.27351242 -0.16961935 0.09375921 -0.12534422 -0.3831293 0.102806166 -0.05268949 -0.018439936
-0.30086297 -0.22336893 0.037063796 -0.28606984 -0.49241364 0.07953068 -0.009874166 -0.008569132

fc1.bias f4 [128]
00000000: c5be d93c de9b 12be 2a9e a73d 0ff8 4ebd
00000010: e9b1 18bf bf42 413f f435 673e 1d8c 9c3e
00000020: 0b9a 493f 4f86 b43d dd77 05be 1540 c13b
00000030: 3dc4 c43e 16ab 0cbf ed0b dabe 8f97 2cbf
00000040: cfaa 1ebf f80e 823d 811c 3e3f b54b ad3e
00000050: 06c4 1c3f 553f b03e 5830 26bf 2ea5 0e3f
00000060: de5f 7c3f c9ee cebe 1312 3d3c fb17 c9be
00000070: 3907 dcbc 9b43 d4be e816 19bf 2a06 36bb
00000080: 4219 22bf 6249 00bf 9eba 28bf 34bd d33e
00000090: 4468 04bf 756d d7bd 0799 97be 2486 053f
000000a0: 9c4e 81be c014 16bf 320d 043e 2c85 22bd
000000b0: c9c8 1ebf 8a1a cdbe 2627 11be 2e2a 16bf
000000c0: b36f 533d b174 63bd de47 91be c596 043e
000000d0: be16 733e e8af 843e 4a6e 94bd c3ff 12bf
000000e0: 6411 a0be 9ac5 d43e 9250 8dbe e578 80bd
000000f0: e0bd 29bf ba5e 33bb fc32 343f f364 4c3f
00000100: dd7d ac3e a2ae 29be a6d9 263f 6748 7f3d
00000110: fb31 1c3f e5bb a33e a6d4 b33e b371 1fbf
00000120: 1a2c 423d 979e debd 7456 e33e f72d 0cbf
00000130: fc62 253d b704 b73c 46e7 c93d 4639 05bf
00000140: 4f96 47bf 8a40 3cbf e6f2 ef3e e17f 513d
00000150: 3202 2e3e b1d0 67be 6420 2d3d 34a2 31be
00000160: 1dc5 b73d cba3 62be f5c5 e13e 873a 1cbe
00000170: 6086 5a3d e2ca 783e 797f c3be e138 d03d
00000180: 3b20 d2be 66a6 ec3d b8a8 733c 4e61 8f3c
00000190: 6f37 0f3f 7a22 113e 0d39 ac3d 2c59 563f
000001a0: 4e28 463f ef87 943e 7612 f33e 28c5 513e
000001b0: 44fd ce3e 6040 693e 764c 8b3e e3b7 8a3e
000001c0: c184 183f c6dc 123f 13e8 e93d b97b 343f
000001d0: 9f74 0b3f a51d 833e b7e6 8b3f 4fc7 08bf
000001e0: 4d65 e8be 3aef 8b3e 35b6 c9be 4c02 883e
000001f0: f364 0d3f 360f e9be b394 c8bd 8a47 4abf
0.026580224 -0.14317271 0.08184464 -0.050529536 -0.5964647 0.7549247 0.22579175 0.30575648
0.78750676 0.0881468 -0.13034005 0.0058975318 0.38430968 -0.54948556 -0.42587224 -0.6741876
-0.61979383 0.06350511 0.74262244 0.33846822 0.6123661 0.34423319 -0.64917517 0.55720794
0.9858378 -0.40416554 0.011539954 -0.39276108 -0.026858913 -0.4145783 -0.5980058 -0.002777467
-0.6331979 -0.50111973 -0.65909755 0.41355288 -0.51721597 -0.10518924 -0.29608938 0.5215781
-0.25255287 -0.5862541 0.12895659 -0.039677784 -0.62025124 -0.4005931 -0.1417509 -0.5865811
0.051620197 -0.055531207 -0.28375143 0.12948139 0.23739144 0.25915456 -0.072475985 -0.5742151
-0.31263268 0.41557008 -0.27600533 -0.06273059 -0.6630535 -0.0027369694 0.70390296 0.79841536
0.33689776 -0.16570523 0.65175855 0.062324908 0.61013764 0.3197929 0.35123175 -0.62282866
0.04740534 -0.10870092 0.44401896 -0.54757637 0.040377602 0.022341115 0.09858565 -0.5204052
-0.7796373 -0.7353598 0.46865004 0.051147345 0.16993025 -0.22638203 0.04226722 -0.17347032
0.08973143 -0.22132795 0.44096342 -0.15256701 0.053350806 0.24296144 -0.3818319 0.10167099
-0.41040215 0.115551755 0.014871769 0.017502453 0.5594396 0.14173308 0.08409319 0.83729815
0.7740525 0.2900996 0.47475022 0.20485365 0.404276 0.22778463 0.27206773 0.2709342
0.59577566 0.57368124 0.11421218 0.70501286 0.54474825 0.25608554 1.0929784 -0.5342912
-0.45389786 0.27330953 -0.39396825 0.26564252 0.5523216 -0.45519418 -0.09793987 -0.7901541

fc2.weight f4 [3, 128]
00000000: 7168 643c 0b34 6b3a cd1f 62bd 563c cf3e
00000010: 2795 64be cbc6 203e 4cd2 e13d 19c6 15bd
00000020: 7fc7 8e3e 1c1a d8bc d070 1bbd 5ffe c63c
00000030: ee78 d13d 1222 66be 4c7a 81bd 0af3 02bf
00000040: 3252 05bc 8047 5dbe d82d 73bb 6d88 8d3d
00000050: 74a6 9e3e 2222 d63d 6669 3dbf 889e fe3d
00000060: 7445 993e 8468 9abe 04c2 08be 0f48 a1be
00000070: b134 8fbd dfb7 08bf e028 57bd 63d7 17be
00000080: 83c3 cbbd 5c85 c7bd 4b73 373c 7f6d 663d
00000090: ab04 c0be 6bc2 713c 937e fdbc d10c 90bd
000000a0: ee2a 5cbe 07fa 3dbe 5345 cd3a 922e 283d
000000b0: 6a01 27bf f2c0 5ebd 963c 8cbd c6c5 61bf
000000c0: 5b71 1fbc 3d75 e6bc b20f 24bd 09bf 8c3e
000000d0: c508 e1bb 3c06 363d 7b4a 14bc 183f 723c
000000e0: 4be1 8dbd 8ec4 823c 34bc ed3b 0e03 89bd
000000f0: 0b74 3fbe 843a 5dbd 62f3 8d3e f5ab 4a3d
00000100: 6c80 953d a240 23bc 3e80 e63c 6b9b e6bc
00000110: 6dec 213f ba94 f5be 379a 8dbd faf9 debe
00000120: 5ae5 373d 462a 733e 4d1a ffbd dbb3 31bd
00000130: 49f9 ffbb 4e5e ba3d f68e 173f 23c6 28be
00000140: 7f99 95bf 5ac3 ddbc 841c 973d 9974 5dbd
00000150: f8ff 853d 9668 18bc 3c69 453d bd7d 913d
00000160: a3af 6a3e 2c95 31bc 52ff 90bc cdf4 973d
00000170: f3d9 053c 67a3 293e c00d 57be c068 6b3c
00000180: 84c6 fbbc 5cd5 22bc b443 c53d 909d 033c
00000190: 6241 d53e 7355 39bb 4f88 1b3d d9e4 493e
000001a0: 6ab6 063e 9a12 c13d f322 d7bd f00a fdbb
000001b0: 6583 273e 1ac6 193c 1436 3c3d 11c8 d23e
000001c0: aa0b 5f3d dad9 c83d ceae a1bd f8fb 3b3f
000001d0: f704 0d3e 0cf2 553d b904 a23e 5910 27bf
000001e0: 11d5 e6bf 881a 493e 1ce1 20be 6cdd 1a3e
000001f0: a806 f23d 4b68 d2bc 5986 b9bc b91c 59bc
00000200: 5ff1 193d 7991 a83c 2d37 7a3d 405e 9a3d
00000210: 601c 15be 407e 593d ef89 4e3d c66d edb9
00000220: 6c7c 07be df95 8b3d 235b c13c 1e4e 0a3d
00000230: 22cd 5f3d 4c76 20be 54f2 26bd 6e16 f7bd
00000240: c931 12bb 9ee2 aa3c 388f 483d db36 f63c
00000250: 64a8 553e 1d59 dc3c 9de2 a8bd 6cf3 75bd
00000260: 220a 913d 862c f4bd 1a32 7abd ca87 85bd
00000270: 942c 8d3e 28f5 873e b21d 1fbc 8d61 a6bd
00000280: 82c0 4abd c9e6 f7bc a4f1 863c 8404 103c
00000290: 1089 8bbd 7fe6 3a3c a900 443c 97eb 263d
000002a0: 184e 10bc af08 47be 9e6b 53bf e673 83bc
000002b0: e1e0 cbbd 67dc 253c f6bd 8e3d 9ab0 5f3c
000002c0: 701f 2d3a 2e3d b63c 9bf4 6f3b 860a 07be
000002d0: 1137 32bc 39f4 e7bc 7b9a 003d 9eab 483c
000002e0: f62a 5c3d d294 243d de64 003d b0ea 4cbd
000002f0: ed4a 31bd 639a cdbc 71d2 6b3b ad6a 223d
00000300: 20e9 823d 5969 07bc 5232 d9bc 4f5d c6ba
00000310: 0931 bebe 1760 7d3e 4da9 153d 6154 abbc
00000320: 398e 6cbd 9922 30bb 67b3 f3bc 5165 30bd
00000330: d486 903c e070 7abb bfec 42bb df38 0cbe
00000340: 82d3 143d 5eac bcbc 9733 ec3b ba94 4ebd
00000350: ee5f 923d aac3 52bc b835 e1bc 6430 27bd
00000360: 1206 06be 9db5 803b fad8 d9bb 6718 89bc
00000370: c683 03bd 7041 283d 6a7a 29be ecb2 303d
00000380: 6120 cf3c 81e4 683d 1131 17bd 7e77 78bf
00000390: af67 b4bd 2461 54bd 6732 f53c 262b e3bb
000003a0: 8908 9e3d f2db 903d d31e 723d a152 673c
000003b0: d3ce 24bd 6893 513c 5960 7e3d 53a5 25be
000003c0: 24af 79bc 8089 313b d712 82bd 6661 013e
000003d0: 2c9c 9fbe 6b43 f63c bd9b 513e f200 e3bb
000003e0: 4108 4a3d 6f15 c5bc 8cc7 64bc 49a1 f3bf
000003f0: b2ae 91bd 506d 2dbd e8c7 843d 9468 263c
0.013940916 0.00089722936 -0.05520611 0.4047572 -0.22322522 0.15700833 0.11026439 -0.036565874
0.27886578 -0.026379637 -0.037949383 0.024291215 0.10228144 -0.22473934 -0.063221544 -0.511521
-0.008137273 -0.21609306 -0.0037106182 0.06910787 0.3098637 0.10455729 -0.7398895 0.12432581
0.299358 -0.30157864 -0.13355261 -0.3150029 -0.06992472 -0.53405565 -0.052529216 -0.14828257
-0.099494 -0.09742233 0.011196922 0.056256767 -0.3750356 0.0147558255 -0.030944144 -0.070336945
-0.21500751 -0.18552409 0.0015660919 0.041060038 -0.6523653 -0.054383226 -0.06847493 -0.88192403
-0.009731616 -0.028132075 -0.04005403 0.27489498 -0.0068675005 0.04443954 -0.009050961 0.014785551
-0.06927737 0.015962865 0.0072551016 -0.06690036 -0.1869661 -0.054010883 0.2772475 0.049480397
0.07299885 -0.00996414 0.028137323 -0.028150281 0.6325138 -0.47965032 -0.0691418 -0.43550092
0.04489646 0.23746595 -0.12456188 -0.043384414 -0.0078116995 0.091000184 0.59202516 -0.16481833
-1.1687468 -0.02707069 0.07378486 -0.054066274 0.06542963 -0.009302279 0.048196062 0.07104061
0.22918563 -0.010838788 -0.017699871 0.07419739 0.008169639 0.1656624 -0.21001339 0.014368236
-0.030734308 -0.009938564 0.09632054 0.008033171 0.41651446 -0.0028279691 0.03797179 0.19716205
0.13155523 0.09427376 -0.10504713 -0.007722251 0.16358717 0.00938561 0.04595001 0.41168264
0.054454483 0.09807177 -0.078946695 0.7343135 0.13771425 0.052232787 0.31644228 -0.6525932
-1.8033773 0.19639027 -0.15710872 0.15123528 0.11817676 -0.025684496 -0.02264707 -0.013251477
0.037583705 0.02057718 0.061087776 0.07537508 -0.14561605 0.053098917 0.050424512 -0.0004528595
-0.13231057 0.06815695 0.023603028 0.033765905 0.05463899 -0.15670127 -0.040758446 -0.12064825
-0.0022307506 0.020860013 0.04896471 0.030055454 0.20865017 0.026897961 -0.08246348 -0.0600466
0.07082011 -0.11922555 -0.061082937 -0.0652004 0.27573073 0.26554227 -0.00971167 -0.08124075
-0.049499996 -0.030261414 0.016472645 0.008790139 -0.06813252 0.011407494 0.011963048 0.04075202
-0.0088076815 -0.19436906 -0.82586086 -0.016046476 -0.099550016 0.010123349 0.06969826 0.013652945
0.0006604111 0.02224597 0.0036614302 -0.13187608 -0.010877387 -0.028314697 0.031397324 0.012247948
0.05375191 0.04018099 0.031346194 -0.050028503 -0.043284345 -0.025098031 0.0035983587 0.039652515
0.06392121 -0.008264863 -0.026513252 -0.0015134009 -0.37146786 0.24743687 0.03653841 -0.020914258
-0.05775282 -0.002687609 -0.029748632 -0.043065373 0.017642416 -0.0038214251 -0.0029743162 -0.1369357
0.036334522 -0.02303141 0.0072082984 -0.050434805 0.071472034 -0.012864033 -0.027491435 -0.040817633
-0.13088253 0.0039279 -0.00664818 -0.016735269 -0.03210809 0.04107803 -0.16550604 0.043139383
0.025283994 0.056858543 -0.036912028 -0.9705733 -0.088088386 -0.051850453 0.02993126 -0.006932634
0.07716472 0.07073201 0.059111428 0.014118821 -0.040236305 0.012791492 0.062103603 -0.16176347
-0.015239511 0.0027090013 -0.0635125 0.12634811 -0.31173837 0.030061444 0.20469566 -0.006927603
0.049324278 -0.024058072 -0.013963591 -1.9033595 -0.071133986 -0.042340577 0.064834416 0.010156769

fc2.bias f4 [3]
00000000: bc5d 813e b495 ef3e 981e 16bf
0.25266826 0.46793902 -0.5864043
